classifiers/1/mirest.pt (torch, 19634 bytes, 17 tensors)

block1.0.weight f4 [16, 1, 1, 32]
0	0x3df2c38f	0.11853706
1	0x3e03c133	0.12866668
2	0xbd6166b0	-0.05502957
3	0x3e1b14f1	0.15144707
4	0xbd289265	-0.041155238
5	0x3d17b220	0.037035108
6	0xbda94757	-0.0826556
7	0x3dd47dc8	0.10375553
8	0x3e1d120f	0.1533892
9	0xbe03bd66	-0.12865219
10	0x3e1ae4b2	0.15126303
11	0x3d0247f2	0.031806894
12	0x3e068136	0.13135228
13	0x3ce16fdd	0.02751916
14	0x3dbc3ee7	0.09191685
15	0xbc4400cb	-0.01196308
16	0x3e17f6ec	0.14840287
17	0x3d2e4f26	0.04255595
18	0xbd7b6ecb	-0.061384957
19	0x3d887e2c	0.066646904
20	0xbd6fc791	-0.05853993
21	0x3a636e34	0.00086757843
22	0xbd568be1	-0.052379493
23	0x3e085799	0.13314666
24	0xbdfd64a1	-0.12372709
25	0xbd91019d	-0.07080386
26	0xbd380d11	-0.044934336
27	0xbdd5a6af	-0.10432183
28	0x3c604fd0	0.013690904
29	0xbe38c39e	-0.18043372
30	0x3e17aa2d	0.1481101
31	0xbe258e4e	-0.16167566
32	0x3d9f2914	0.07771507
33	0xbcdf9dbc	-0.027296893
34	0xbde5680a	-0.112014845
35	0x3d6c8b08	0.057749778
36	0xbcb68dd1	-0.02228442
37	0x3dbe1a56	0.09282367
38	0xbd01e1a2	-0.03170932
39	0xbddc16cf	-0.10746538
40	0xbb8af5cc	-0.004240727
41	0xbdcfee96	-0.101529285
42	0x3cb39aef	0.021924464
43	0x3de40d1b	0.11135312
44	0x3d7d8476	0.061893903
45	0xbde2bfeb	-0.11071762
46	0x3da1b4a4	0.078957826
47	0x3c98d72f	0.018657295
48	0x3daca2c1	0.0842948
49	0xbde04e90	-0.109524846
50	0xbe338821	-0.17532398
51	0xbd8cf003	-0.06881716
52	0xbe0ee1ac	-0.13953274
53	0x3e0afe62	0.13573602
54	0x3d1724c2	0.03690029
55	0x3d630a1f	0.055429574
56	0x3d09b010	0.033615172
57	0xbcce153a	-0.025156606
58	0x3df540c8	0.11975247
59	0xbe11548b	-0.14192407
60	0xbb26be1d	-0.0025442906
61	0xbe05ccbf	-0.13066386
62	0x3d493105	0.049119014
63	0xbd81be14	-0.06335083
64	0x3d5452a8	0.05183664
65	0xbd1636b3	-0.03667326
66	0x3e193299	0.14960708
67	0xbdcd7d66	-0.100336835
68	0xbdcc0196	-0.0996124
69	0xbdc38532	-0.09546889
70	0x3e306198	0.17224729
71	0x3d98d0c0	0.07461691
72	0x3e3f0b26	0.18656597
73	0xbe0382d0	-0.1284287
74	0xbe21aa5e	-0.15787646
75	0xbdf2790b	-0.11839493
76	0xbdca0080	-0.098633766
77	0x3dbbbe00	0.09167099
78	0x3da99c51	0.08281768
79	0x3e2b7fca	0.16747966
80	0xbd9d787a	-0.07688995
81	0xbde5c4e9	-0.11219198
82	0x3dce4dc5	0.10073427
83	0xbd83ec24	-0.064415246
84	0x3de7f5a0	0.11326146
85	0xbd0fcd97	-0.035108175
86	0x3dda8e1a	0.10671635
87	0xbe05f78e	-0.13082716
88	0xbda724dd	-0.08161328
89	0x3d8705b3	0.06592884
90	0x3d55cb6c	0.05219595
91	0xbcedb78c	-0.029018186
92	0x3dfa8426	0.122322366
93	0x3e0c3c40	0.13694859
94	0xbde21925	-0.11039952
95	0xbd97bdd2	-0.07409252
96	0x3dc40e47	0.09573036
97	0xbde51202	-0.11185075
98	0xbdd339b1	-0.10313738
99	0xbe4c890a	-0.19974151
100	0xbdf90ee6	-0.12161045
101	0x3cda289b	0.02663069
102	0xbd0c2414	-0.034214094
103	0xbe0bedee	-0.13664982
104	0xbb4aa7ad	-0.0030922696
105	0xbdf87f67	-0.12133675
106	0xbe16b9f6	-0.14719376
107	0xbdcd665a	-0.10029288
108	0xbe2a7006	-0.16644296
109	0xbe0952eb	-0.13410537
110	0x3e19422b	0.14966647
111	0x3b8b501b	0.0042514927
112	0x3cc00e5f	0.023444353
113	0xbe407c12	-0.18797329
114	0xbdfd0d2e	-0.123560295
115	0xbd88d643	-0.06681492
116	0x3c971fa1	0.018447699
117	0xbe220656	-0.1582273
118	0xbda82ef9	-0.08212084
119	0xbe061258	-0.13092935
120	0xbd28096a	-0.041024603
121	0xbde95274	-0.1139268
122	0xbd92df96	-0.07171552
123	0xbe3d53f9	-0.18489064
124	0xbe422d83	-0.18962674
125	0xbe38e49b	-0.18055956
126	0xbe17fd5b	-0.14842741
127	0xbe74fba5	-0.2392412
128	0x3e2ef335	0.17084964
129	0xbca5da1f	-0.02024561
130	0x3e273cf2	0.16331843
131	0x3d913d75	0.070918
132	0xbdfb4d2e	-0.1227058
133	0x3e268f1b	0.16265528
134	0x3b703669	0.0036653525
135	0xbc0e93d1	-0.008702234
136	0xbda74b4d	-0.08168659
137	0xbddf713a	-0.10910268
138	0x3de65a5a	0.11247702
139	0x3c9b0b9e	0.018926438
140	0x3df76dab	0.120814644
141	0xbdc6c96e	-0.097063884
142	0x3e316ddf	0.17327069
143	0xbdb924c7	-0.09040218
144	0x3bd1dcf9	0.006404516
145	0x3d91e423	0.07123592
146	0x3e02a8c9	0.12759699
147	0x3e45aa4c	0.19303244
148	0x3e6864db	0.22694723
149	0xbd8075ad	-0.06272445
150	0x3e092a1f	0.13394974
151	0x3cb10b70	0.0216119
152	0x3d9a935e	0.07547639
153	0xbd37d304	-0.044878975
154	0x3e78baf6	0.2429007
155	0xbd500527	-0.050786164
156	0x3e2e3a3b	0.170144
157	0x3e085e69	0.13317265
158	0x3dff71d1	0.12472881
159	0xbcd0e877	-0.025501473
160	0x3e3ff44e	0.18745539
161	0x3d77da78	0.060511082
162	0x3d19efd3	0.03758223
163	0xbe14040b	-0.14454667
164	0x3db10dc4	0.08645204
165	0xbc6df295	-0.014523168
166	0xbd8b3059	-0.06796331
167	0x3e2eabff	0.17057799
168	0x3d7bcb4a	0.06147317
169	0xbd9a3856	-0.075302765
170	0xbd8576af	-0.06516778
171	0x3c7db5ad	0.015485209
172	0x3df154b7	0.11783736
173	0xbd074707	-0.03302672
174	0xbdc032f2	-0.09384717
175	0xbd702d73	-0.058637094
176	0xbe05ad03	-0.1305428
177	0x3d810714	0.06300178
178	0x3e07c433	0.13258438
179	0xbe353bff	-0.17698668
180	0x3cb6bf38	0.022307977
181	0x3d86aca0	0.06575894
182	0x3ab73202	0.0013976695
183	0xbdc01645	-0.093792476
184	0x3d82e463	0.063912176
185	0x3d8f86bd	0.07008121
186	0x3d433a00	0.047662735
187	0xbd439cd3	-0.04775698
188	0xbd7f130d	-0.062274028
189	0x3bcf6b30	0.0063299164
190	0xbd26d8ed	-0.04073422
191	0xbd6883c5	-0.05676629
192	0x3e053823	0.13009696
193	0x3e2f0d9d	0.17095037
194	0x3bdcb929	0.00673594
195	0xbc911831	-0.01771173
196	0x3cb0b970	0.021572798
197	0x3c4ddfef	0.012565597
198	0x3d7fb35f	0.06242692
199	0x3d915c28	0.070976555
200	0xbe05a1f6	-0.13050064
201	0xbd26deb9	-0.04073975
202	0x3e28e01f	0.16491745
203	0x3dadab07	0.084798865
204	0x3bb3bdcf	0.0054852734
205	0xbdb2503c	-0.0870671
206	0xbdb0b73d	-0.086287
207	0xbe0eca78	-0.13944423
208	0xbd4eb07e	-0.050461285
209	0x3d5f885e	0.05457341
210	0x3dcfbb55	0.101431526
211	0x3d84c228	0.06482345
212	0xbe2def29	-0.16985764
213	0xbdfe5608	-0.12418753
214	0xbd565296	-0.052324854
215	0x3e0e8e86	0.13921556
216	0xbbb4b361	-0.0055145477
217	0xbd9d90a3	-0.07693603
218	0x3d223134	0.039597705
219	0xbdc74703	-0.09730341
220	0xbe127080	-0.14300728
221	0x3dba0eac	0.0908483
222	0xbdeb5d4b	-0.114924036
223	0xbd861639	-0.065472074
224	0xbe87bab2	-0.26509625
225	0x3ceedfae	0.029159393
226	0x3d427976	0.047479115
227	0xbc70c65b	-0.014695729
228	0xbe482a50	-0.19547391
229	0xbe733cc0	-0.23753643
230	0xbe4e79b1	-0.20163609
231	0x3d97cd4b	0.074122034
232	0x3d1f5da9	0.03890768
233	0x3de1e5e1	0.11030174
234	0x3d66a479	0.056309197
235	0x3c0f647e	0.008751987
236	0xbd1c9365	-0.038226504
237	0xbe2dee78	-0.169855
238	0xbe3a04ec	-0.1816594
239	0xbe4ba417	-0.19886814
240	0x3d304ccc	0.04304199
241	0xbdc660b3	-0.09686413
242	0xbd2aa0a2	-0.041657098
243	0xbdd2ab25	-0.102865495
244	0xbd07e971	-0.03318161
245	0xbdff5ed0	-0.12469256
246	0xbe0155c5	-0.12630375
247	0x3d0f793a	0.03502772
248	0xbd77e8a1	-0.060524587
249	0x3ddadf76	0.10687153
250	0xbd523986	-0.05132439
251	0xbdfb2960	-0.12263751
252	0xbd24d620	-0.040243268
253	0xbdd8affa	-0.1058044
254	0xbd9a5751	-0.075361855
255	0xbe3decc2	-0.18547347

block1.1.weight f4 [16]
0	0x3f7bf050	0.9841356
1	0x3f61927c	0.8811414
2	0x3f806770	1.0031567
3	0x3f8987f7	1.0744618
4	0x3f897a95	1.0740534
5	0x3f8027e4	1.0012174
6	0x3f830341	1.0235368
7	0x3f877880	1.0583649
8	0x3f829a80	1.02034
9	0x3f5d7097	0.86499923
10	0x3f803b00	1.0018005
11	0x3f7e1c58	0.99262
12	0x3f78195a	0.96913683
13	0x3f8a5a49	1.0808803
14	0x3f74afa0	0.9558048
15	0x3f71118d	0.94167405

block1.1.bias f4 [16]
0	0x3bd94016	0.006629954
1	0x3b3e3eb4	0.0029029073
2	0x388b132c	6.6316075e-05
3	0x3b4cbc2b	0.0031240087
4	0x3cd08166	0.025452327
5	0xbc92e15a	-0.017929722
6	0x3cda239a	0.026628304
7	0xbc6d3e71	-0.014480219
8	0xbb102073	-0.0021991997
9	0xbc16dfb0	-0.009208605
10	0xbbf9890d	-0.0076152147
11	0xbb1ebc3c	-0.0024221083
12	0xbcacec1f	-0.021108685
13	0x3cb0a377	0.021562321
14	0xbb314244	-0.0027047554
15	0xbb8005a0	-0.0039069206

block1.1.running_mean f4 [16]
0	0x3520c049	5.9884457e-07
1	0xb5152d98	-5.5573173e-07
2	0x34412587	1.7988178e-07
3	0xb6a01478	-4.7707545e-06
4	0x3645ddc1	2.9484365e-06
5	0xb2e28eed	-2.6374858e-08
6	0xb506df1a	-5.0243546e-07
7	0xb661392e	-3.3560896e-06
8	0x362b4e09	2.5526408e-06
9	0x34982315	2.8337732e-07
10	0xb6216109	-2.4047351e-06
11	0x359e662d	1.1801654e-06
12	0xb5718355	-8.997061e-07
13	0xb63faa5d	-2.8560382e-06
14	0xb555e591	-7.9682746e-07
15	0xb3e87bbb	-1.0825848e-07

block1.1.running_var f4 [16]
0	0x30dcdaca	1.606929e-09
1	0x2fef3227	4.3509482e-10
2	0x2f608cce	2.0422705e-10
3	0x32bd18e7	2.201382e-08
4	0x3210fb12	8.43899e-09
5	0x2f7d2cad	2.3026088e-10
6	0x3052f90d	7.675148e-10
7	0x32410c4c	1.12368745e-08
8	0x320a9365	8.066171e-09
9	0x308b64d9	1.0142244e-09
10	0x31c97d0f	5.8640874e-09
11	0x30c6b2c4	1.4457204e-09
12	0x308529fd	9.688957e-10
13	0x3222af93	9.469562e-09
14	0x30921373	1.0628426e-09
15	0x2fe21b8d	4.1128737e-10

block2.0.weight f4 [32, 1, 18, 1]
0	0x3d48964b	0.048971456
1	0xbe31335c	-0.17304748
2	0xbe0c7190	-0.13715196
3	0xbe2e27c6	-0.1700736
4	0x3e522a99	0.20524062
5	0xbe5f7394	-0.21821433
6	0x3e2af773	0.16695957
7	0xbcd91136	-0.026497465
8	0xbd94a21a	-0.07257481
9	0x3e1f05da	0.15529576
10	0xbbec6b70	-0.007214956
11	0x3dfc1b3f	0.12309884
12	0x3e2da834	0.16958696
13	0xbe34ae1b	-0.17644541
14	0x3dfa1d81	0.12212659
15	0x3c922166	0.017838191
16	0x3d6c32a0	0.057665467
17	0x3d56aa01	0.052408222
18	0x3d32f2da	0.043688633
19	0xbe28f88c	-0.16501063
20	0xbdb9e299	-0.09076423
21	0x3e5d2d53	0.21599321
22	0x3dc0d97e	0.09416483
23	0xbda4194a	-0.08012636
24	0xbe8ce7c8	-0.27520585
25	0xbcf73a9b	-0.030179312
26	0xbe28ef33	-0.16497497
27	0x3e01dc3f	0.12681673
28	0xbe28304f	-0.16424678
29	0xbc116b43	-0.008875671
30	0xbd1ec575	-0.03876253
31	0x3d28a113	0.041169237
32	0x3e41de61	0.18932487
33	0xbdbf7c37	-0.09349864
34	0x3d713882	0.05889178
35	0x3e21e48c	0.1580984
36	0x3e2c1403	0.16804509
37	0xbde5e167	-0.11224633
38	0xbd9e9455	-0.07743136
39	0x3d9c581f	0.07633995
40	0xbdaa0fcd	-0.08303795
41	0x3daccd02	0.0843754
42	0xbcf50a37	-0.029912097
43	0xbe15ce0d	-0.14629383
44	0x3db3c941	0.087786205
45	0x3c616b96	0.013758561
46	0x3d8c456d	0.068491794
47	0x3e4d7961	0.20065834
48	0x3e1279c7	0.14304267
49	0x3e516822	0.2044988
50	0x3bf73efc	0.00754535
51	0xbe4e6b59	-0.20158137
52	0xbe12f482	-0.14351085
53	0xbdeb0e29	-0.1147731
54	0xbe3fc7a5	-0.18728502
55	0xbd4c2e3f	-0.04984879
56	0xbe23cab2	-0.15995291
57	0xbe1cc435	-0.15309222
58	0xbddc26fd	-0.10749624
59	0xbe4a5d89	-0.19762243
60	0xbd90ee38	-0.070766866
61	0x3e22033b	0.15821545
62	0x3e61bdf7	0.22045122
63	0x3cb5cdc9	0.022192853
64	0x3d75a1ea	0.059968866
65	0x3e18b1e2	0.14911607
66	0xbce1a3da	-0.02754395
67	0xbb646781	-0.0034851732
68	0x3e50f6ff	0.20406722
69	0xbe5a6667	-0.21328126
70	0x3d4ce93b	0.050027113
71	0x3e7d877d	0.24758716
72	0x3d208e5e	0.039198272
73	0x3daea16b	0.08526882
74	0xbe07e80d	-0.13272114
75	0xbc84db02	-0.016217712
76	0x3cc11df0	0.023573846
77	0x3d947408	0.07248694
78	0x3d89492a	0.06703408
79	0x3e484251	0.19556548
80	0xbe4113ff	-0.18855284
81	0x3cb5da17	0.02219872
82	0xbde1d62a	-0.11027177
83	0xbe4fec5e	-0.2030501
84	0xbd425587	-0.047444846
85	0xbe681c5e	-0.22667071
86	0x3e1bd6e5	0.15218695
87	0x3da75547	0.08170562
88	0xbdb7bedb	-0.0897195
89	0x3e05e2eb	0.13074844
90	0xbe75863c	-0.23976988
91	0xbdcd96ef	-0.10038554
92	0xbd5790af	-0.052628215
93	0xbe59ac58	-0.2125715
94	0xbe153c4c	-0.14573783
95	0xbcf1cc8e	-0.029516485
96	0x3e165e8d	0.14684506
97	0x3e48e895	0.19619973
98	0x3e05a42c	0.13050908
99	0xbe20d204	-0.15705115
100	0xbe2ecc3d	-0.17070098
101	0x3e42d727	0.19027387
102	0x3da3aa51	0.0799147
103	0x3c6b00e7	0.014343477
104	0x3d299c5d	0.041408885
105	0xbe1aebe9	-0.15129055
106	0xbd20383f	-0.03911614
107	0x3e8197a9	0.2531102
108	0xbcd3f12e	-0.02587184
109	0xbc23d811	-0.010000245
110	0xbe3f5879	-0.18686093
111	0xbd5d7c80	-0.05407381
112	0x3c8d2c6d	0.017233098
113	0xbdf7f4af	-0.121072166
114	0xbc819aa3	-0.015820807
115	0x3dbc66a4	0.09199265
116	0xbe2caa2e	-0.16861793
117	0x3de39e80	0.11114216
118	0xbce8c0e4	-0.02841229
119	0xbdbf7c4c	-0.093498796
120	0x3e53472f	0.20632623
121	0x3eb7c939	0.35895708
122	0x3c3ac709	0.011399993
123	0xbdc966c5	-0.09834055
124	0xbe2522aa	-0.16126505
125	0xbb2c97e8	-0.002633566
126	0xbe8c5646	-0.2740957
127	0xbe2b316f	-0.16718076
128	0xbce48174	-0.02789376
129	0xbe8be23e	-0.27321047
130	0x3e1d6d64	0.1537376
131	0x3d75a7bc	0.059974417
132	0xbe12919a	-0.14313355
133	0xbdeddf7e	-0.116148934
134	0x3c66095f	0.01404032
135	0xbde6d91d	-0.1127188
136	0xbd14a130	-0.036286533
137	0xbe2ccd8b	-0.16875283
138	0x3e43d09d	0.19122548
139	0xbdaeef58	-0.08541745
140	0x3e1b294c	0.15152472
141	0xbd949cbd	-0.07256458
142	0xbc7b4f77	-0.01533877
143	0x3e125387	0.14289676
144	0x3c4a3dd4	0.012343843
145	0xbd9f22dc	-0.07770321
146	0xbc5f2318	-0.013619207
147	0x3e1415db	0.14461462
148	0xbe0d07b5	-0.13772471
149	0x3da728cb	0.081620775
150	0xbe3410ad	-0.17584486
151	0x3e2cf03b	0.16888516
152	0x3e032413	0.1280673
153	0x3d093ed9	0.0335072
154	0x3d8a0c1e	0.067405924
155	0x3d3a401d	0.0454713
156	0x3d2d4ba1	0.042308453
157	0xbeab560d	-0.3346409
158	0xbde3b83f	-0.111191265
159	0x3e2dde31	0.1697929
160	0x3e692b41	0.22770406
161	0x3d12ba3d	0.035822142
162	0xbe3bc34a	-0.18336216
163	0x3e26500d	0.16241474
164	0xbdaba949	-0.08381898
165	0xbe114f08	-0.14190304
166	0xbe38ae4d	-0.1803524
167	0xbcb5a9a8	-0.022175625
168	0x3e0e38df	0.13888882
169	0x3c23d5d2	0.009999709
170	0xbe1f1252	-0.15534332
171	0x3d4e166b	0.05031435
172	0xbdd8e5b9	-0.10590691
173	0x3e2f13a9	0.17097344
174	0xbe801a2f	-0.25019976
175	0xbdcbecfe	-0.09957312
176	0xbe98d32f	-0.2984862
177	0x3cfb681c	0.030689292
178	0x3de29490	0.11063492
179	0x3e32ca26	0.17459926
180	0xbb28ac71	-0.0025737549
181	0x3e4e3967	0.20139085
182	0x3a8fae3e	0.0010961962
183	0x3e091dbd	0.1339025
184	0x3e1f47c1	0.15554716
185	0x3e4787dd	0.19485421
186	0xbe23dea8	-0.16002905
187	0x3e240ec7	0.16021262
188	0x3dd8e9ea	0.105914906
189	0xbe049525	-0.12947519
190	0xbe1416f8	-0.14461887
191	0xbe8427ac	-0.25811517
192	0x3ca5e16e	0.020249095
193	0xbe4c071d	-0.19924589
194	0x3dbb9af4	0.09160414
195	0x3dcca0ba	0.09991594
196	0xbe603a38	-0.21897209
197	0x3d5f0bab	0.054454487
198	0xbd0e3969	-0.03472272
199	0x3dd708cb	0.10499724
200	0x3df20451	0.118172295
201	0xbe72cb43	-0.2371035
202	0x3e5ae1a8	0.21375144
203	0x3e5b5d27	0.21422254
204	0x3deb6ef2	0.114957705
205	0xbe579b61	-0.21055366
206	0xbd9f536a	-0.07779582
207	0xbd923cd8	-0.07140511
208	0xbd8ad089	-0.06778056
209	0x3dca42c6	0.09876017
210	0x3d47705a	0.04869113
211	0x3e1954bd	0.14973731
212	0xbde145ff	-0.10999679
213	0x3df0ba6f	0.117543094
214	0x3da24987	0.079241805
215	0xbe602dee	-0.21892521
216	0xbe5a92c4	-0.21345049
217	0xbd6b8c07	-0.057506587
218	0x3e3ac13c	0.18237776
219	0xbe5bdf32	-0.21471861
220	0xbe5f6d9b	-0.21819155
221	0x3e051e90	0.1299994
222	0x3e44d1f1	0.19220711
223	0x3e82ab60	0.25521374
224	0xbe29c9de	-0.16580912
225	0xbdf7d39f	-0.121009104
226	0x3e13c43b	0.14430325
227	0x3e310a27	0.17289029
228	0x3d61463c	0.05499862
229	0xbd1ecaef	-0.03876775
230	0x3d3a1a14	0.045435026
231	0x3e640172	0.22266176
232	0xbe14fcb7	-0.14549528
233	0xbdf098ae	-0.11747871
234	0x3e38fe72	0.18065813
235	0xbe2235e1	-0.15840866
236	0xbde39042	-0.11111499
237	0x3e50bdee	0.20384952
238	0x3dc79155	0.09744517
239	0x3dc80ce6	0.09768085
240	0xbd80d1c2	-0.06290008
241	0x3c8dfa36	0.017331224
242	0x3e6d69f2	0.23184946
243	0xbe0265ba	-0.12734118
244	0x3b2140a0	0.002460517
245	0x3e0e44b2	0.13893393
246	0xbdd38782	-0.103285804
247	0x3e8ba203	0.27272043
248	0xbd483219	-0.0488759
249	0xbcc7708e	-0.024345662
250	0x3c886563	0.016649907
251	0xbd0d2ce2	-0.03446663
252	0xbe221d00	-0.15831375
253	0x3e54174f	0.20712017
254	0x3db1b369	0.08676798
255	0xbe4fa415	-0.20277436

block2.1.weight f4 [32]
0	0x3f6890a2	0.9084569
1	0x3f88fdaf	1.0702418
2	0x3f63ac26	0.8893455
3	0x3f747d62	0.9550382
4	0x3f82622b	1.0186208
5	0x3f6ab0b2	0.91675866
6	0x3f870689	1.0548869
7	0x3f71ee00	0.94503784
8	0x3f896056	1.0732524
9	0x3f81ce9d	1.0141178
10	0x3f826f68	1.0190248
11	0x3f809dc2	1.0048144
12	0x3f888505	1.0665594
13	0x3f71e0c5	0.94483596
14	0x3f85d3bf	1.0455245
15	0x3f899266	1.0747802
16	0x3f8460f9	1.0342094
17	0x3f82fb21	1.0232888
18	0x3f6f9aa6	0.9359535
19	0x3f6d94bf	0.92805094
20	0x3f69029b	0.910196
21	0x3f7e6b88	0.9938283
22	0x3f811555	1.0084635
23	0x3f734986	0.9503406
24	0x3f819cec	1.0126014
25	0x3f7542df	0.9580516
26	0x3f8d907e	1.105972
27	0x3f7aacf1	0.9792014
28	0x3f784371	0.9697791
29	0x3f7167d3	0.9429905
30	0x3f7ddd8f	0.99166197
31	0x3f738e43	0.9513895

block2.1.bias f4 [32]
0	0xbd73dce7	-0.05953684
1	0xbdec5091	-0.11538804
2	0xbd4f5bd3	-0.05062468
3	0xbba28ee6	-0.0049608825
4	0x3d32e7c6	0.043678068
5	0xbd047268	-0.03233567
6	0xbccde17f	-0.025131939
7	0x3dc4c5eb	0.09608062
8	0xbd8feaf3	-0.07027235
9	0xbc68c438	-0.014206938
10	0x3cc63594	0.02419547
11	0x3d9f3bbb	0.077750646
12	0xbe3019a6	-0.17197284
13	0xbdbf1204	-0.09329608
14	0xbd834965	-0.06410483
15	0xbdef617f	-0.11688518
16	0xbcd09c57	-0.025465174
17	0xbe62d1e3	-0.22150378
18	0xbe2f4d1d	-0.1711926
19	0xbd2f7874	-0.042839482
20	0xbc6d54ea	-0.014485577
21	0x3dc37d5a	0.09545393
22	0x3c63c87b	0.013902779
23	0xbdb84898	-0.08998221
24	0xbc3adfad	-0.0114058675
25	0x3dae489e	0.085099444
26	0xbbeba7a2	-0.0071916142
27	0x3cc09a44	0.02351106
28	0xbd239299	-0.03993473
29	0xbc5a97a2	-0.013341816
30	0xbdd9f15a	-0.10641737
31	0xbe0afdcb	-0.13573377

block2.1.running_mean f4 [32]
0	0x3a13d94c	0.0005639985
1	0xba4dfdc7	-0.0007857945
2	0x3945bf92	0.0001885875
3	0xb99b5251	-0.00029625234
4	0xb8936e3e	-7.0300404e-05
5	0x3823e0de	3.9071652e-05
6	0x3ad9c303	0.0016613904
7	0xba0c821c	-0.0005359964
8	0x3c11db52	0.008902388
9	0xbc95ae60	-0.018271625
10	0xbb0670a3	-0.0020513914
11	0xbb8700f1	-0.0041199853
12	0x3b319ce1	0.0027101564
13	0x3c747e9a	0.014922762
14	0x3b13fd3e	0.0022581364
15	0x3addf99f	0.0016935355
16	0x3ac69dd8	0.0015153242
17	0x3a86c62b	0.0010282447
18	0x3aa97a34	0.0012930096
19	0xba01ecbf	-0.00049562374
20	0xbbea84ad	-0.0071569295
21	0x3ad6c03a	0.0016384192
22	0xb9529e73	-0.00020086188
23	0x38afef0b	8.3891755e-05
24	0x3a9d525b	0.0012002693
25	0xbaaf6795	-0.001338231
26	0x3ad5fc13	0.0016325734
27	0xbaed74b6	-0.0018116448
28	0x3aed67db	0.0018112616
29	0xba62bf0b	-0.00086496834
30	0xb798b9fe	-1.8206421e-05
31	0x3a29e908	0.0006481563

block2.1.running_var f4 [32]
0	0x375b7292	1.3080093e-05
1	0x3893c0fb	7.045452e-05
2	0x3616e784	2.2486502e-06
3	0x36365805	2.7171347e-06
4	0x35cce71c	1.5266446e-06
5	0x36b8f6df	5.512367e-06
6	0x389c1efa	7.4444295e-05
7	0x3b2e323c	0.0026580235
8	0x3867eef2	5.5297227e-05
9	0x399d5297	0.00030006908
10	0x35f77ae8	1.8438705e-06
11	0x363c88be	2.8093777e-06
12	0x37a1d74f	1.9292956e-05
13	0x379dfbf3	1.8833181e-05
14	0x38de91b5	0.00010612925
15	0x3820cbd7	3.8336813e-05
16	0x37babce9	2.2260896e-05
17	0x37caaa13	2.4159473e-05
18	0x376d9b76	1.4162497e-05
19	0x37081d1f	8.113012e-06
20	0x3a15f487	0.00057203363
21	0x37d56934	2.5440568e-05
22	0x367d7afe	3.7771529e-06
23	0x37d4a792	2.53504e-05
24	0x36cddbf6	6.135083e-06
25	0x36874255	4.0310356e-06
26	0x382f1290	4.174054e-05
27	0x384c216c	4.8668517e-05
28	0x38199665	3.661811e-05
29	0x36a6246b	4.951425e-06
30	0x3729b3fb	1.011509e-05
31	0x369aeb5d	4.6169575e-06

block3.0.weight f4 [32, 1, 1, 16]
0	0xbdda1aae	-0.1064962
1	0xbe60fe86	-0.21972093
2	0x3cf1e112	0.029526267
3	0x3d5d0673	0.05396123
4	0xbe5cd310	-0.21564889
5	0x3d2c9983	0.042138588
6	0x3e2b46da	0.16726246
7	0x3d3daeaf	0.04630917
8	0xbda4d3cb	-0.08048209
9	0x3e3bd524	0.18343025
10	0x3ddf5267	0.10904389
11	0x3e1edb8c	0.15513438
12	0xbdc50ea6	-0.096219346
13	0x3e28a333	0.16468506
14	0xbdcb289c	-0.09919855
15	0x3e823ae8	0.25435567
16	0x3c7e9a19	0.015539669
17	0x3e5f221e	0.21790358
18	0x3e15c90a	0.14627472
19	0x3e3a52b5	0.18195613
20	0x3dbc686e	0.09199606
21	0x3e400016	0.18750033
22	0xbc69fede	-0.0142819565
23	0xbe101196	-0.14069209
24	0xbd1fafc9	-0.038986
25	0x3e40bd56	0.18822226
26	0xbc9f8c44	-0.019476064
27	0x3e0c23e1	0.13685562
28	0xbc8c5542	-0.017130498
29	0x3e670233	0.22559433
30	0x3e3f7bc6	0.1869956
31	0x3dee21f6	0.11627571
32	0xbd8ac6d7	-0.06776207
33	0xbe1960ab	-0.14978282
34	0x3d2128d0	0.039345562
35	0xbde3bf3e	-0.11120461
36	0x3e56ea58	0.20987833
37	0xbe4d63b6	-0.20057568
38	0x3df991df	0.12186026
39	0x3e7dc2d9	0.2478136
40	0x3e06d4b6	0.1316708
41	0x3dbfb7e8	0.09361249
42	0xbe47acc2	-0.19499496
43	0x3e72a76b	0.23696677
44	0xbcfa5d4f	-0.030562071
45	0xbe56e178	-0.20984447
46	0x3e6a47e7	0.22878991
47	0xbdba4ff9	-0.09097285
48	0xbcf701f7	-0.030152304
49	0x3e36e123	0.1785932
50	0xbe317847	-0.17331038
51	0xbe3fde41	-0.18737127
52	0x3b09a314	0.0021001743
53	0xbd8781ae	-0.06616531
54	0x3c9999b4	0.01875005
55	0xbe50f9bb	-0.20407765
56	0xbc739bfb	-0.014868732
57	0xbded24fd	-0.115793206
58	0xbe02b053	-0.12762575
59	0xbe519a20	-0.2046895
60	0x3deee624	0.116649896
61	0x3d2bb02e	0.041916065
62	0xbe3cc3de	-0.18434092
63	0x3e350898	0.1767906
64	0x3d7cf914	0.061760977
65	0x3d247b1f	0.04015648
66	0xbe067ec6	-0.13134298
67	0x3d553c77	0.052059617
68	0x3e6362cf	0.22205661
69	0x3e24d401	0.16096498
70	0xbe2a719c	-0.16644901
71	0x3e74effd	0.23919673
72	0x3d67babc	0.05657457
73	0x3e233b18	0.15940511
74	0x3e814626	0.25248832
75	0x3e927710	0.28606462
76	0xbdce16b6	-0.100629255
77	0x3e963094	0.29333937
78	0xbda21613	-0.079143666
79	0x3dbd2138	0.092348516
80	0xbe15ba8c	-0.14621943
81	0xbd2c12a1	-0.042009953
82	0xbbf0c0f6	-0.0073472215
83	0xbc980c2c	-0.018560492
84	0xbcdce2cb	-0.026963612
85	0x3bb2fd72	0.005462342
86	0x3e536310	0.20643258
87	0x3e001a0d	0.12509938
88	0x3dffa3fc	0.124824494
89	0x3dad3915	0.08458153
90	0x3e3569af	0.17716096
91	0x3c14f611	0.00909187
92	0x3d39cdec	0.045362398
93	0x3d9ae2d3	0.075627945
94	0xbe242877	-0.16031061
95	0xbe0cf905	-0.13766868
96	0xbc03c7a4	-0.0080432035
97	0xbdf4492a	-0.119280174
98	0xbd4e4976	-0.050363027
99	0xbddd6644	-0.10810521
100	0xbd296f2b	-0.041365784
101	0x3d795d6f	0.06088012
102	0xbe195234	-0.14972764
103	0x3dbdc84e	0.09266721
104	0x3dbb7a47	0.09154182
105	0xbe7a0a6a	-0.24418035
106	0xbe7910c9	-0.2432281
107	0xbe7a7edb	-0.24462454
108	0xbe3a50e1	-0.18194915
109	0xbe1903d7	-0.14942871
110	0xbdb932b4	-0.09042874
111	0xbe0c4e76	-0.13701805
112	0xbdce2256	-0.10065143
113	0xbd64754f	-0.055775937
114	0xbd8c278b	-0.0684348
115	0x3e58bf55	0.21166737
116	0xbda38afd	-0.07985494
117	0xbe254c3e	-0.16142365
118	0x3d91e95c	0.07124588
119	0xbcbe8695	-0.023257533
120	0x3e219250	0.1577847
121	0x3e0ebf01	0.1394005
122	0x3e5c9dab	0.2154452
123	0xbe0b3ff7	-0.1359862
124	0x3e2b599a	0.16733399
125	0x3e58402d	0.21118231
126	0xbda4632a	-0.080267265
127	0x3e6fde87	0.23424731
128	0x3e6848b3	0.22683983
129	0x3d7fc7d7	0.06244644
130	0x3e2144d9	0.1574892
131	0xbbf8a3c8	-0.0075878836
132	0xbdf56c7e	-0.11983584
133	0x3e06d676	0.13167748
134	0x3e1785ef	0.14797185
135	0xbd5f1387	-0.054461982
136	0x3e3ec6cb	0.18630521
137	0xbdce3ea7	-0.10070544
138	0x3e8a9934	0.2707001
139	0x3e932c7b	0.28744873
140	0x3e03dc2e	0.1287696
141	0xbd9e33d0	-0.07724726
142	0x3e32ec06	0.17472848
143	0x3de023e6	0.10944347
144	0x3d6a6235	0.057222564
145	0x3d8f834d	0.070074655
146	0x3e30d36e	0.17268154
147	0xbdb6e718	-0.089307964
148	0xbd44a551	-0.04800922
149	0x3d7d0eab	0.061781567
150	0x3d129d99	0.035794828
151	0x3e5369d2	0.20645836
152	0xbda3fb01	-0.080068596
153	0x3d28e22b	0.041231316
154	0x3dd960b7	0.1061415
155	0x3cd60ff4	0.026130654
156	0x3e7e73c7	0.24848853
157	0x3e031aa3	0.1280313
158	0xbdefdc81	-0.1171198
159	0x3da0c25d	0.07849572
160	0xbd97cffb	-0.07412716
161	0x3c4beaa6	0.012446081
162	0xbd23c573	-0.039983224
163	0xbe815684	-0.2526132
164	0xbda4a0c5	-0.08038477
165	0x3c179b46	0.009253329
166	0xbc94bae6	-0.018155526
167	0x3e859683	0.26091394
168	0x3d297d16	0.041379057
169	0x3e62ed50	0.2216084
170	0x3e1922e4	0.14954716
171	0xbdd4c412	-0.1038896
172	0x3dff50ed	0.12466607
173	0x3e8287e6	0.25494307
174	0xbdaa17a2	-0.08305289
175	0xbdba78c0	-0.091050625
176	0x3e641945	0.22275265
177	0x3e45a9c0	0.19303036
178	0xbdc0a2e6	-0.094060704
179	0x3e10b8f9	0.14133061
180	0xbd21273f	-0.03934407
181	0xbe58f6e7	-0.21187936
182	0x3b4b703c	0.0031042239
183	0x3daa4d81	0.08315564
184	0xbd1e9439	-0.038715575
185	0x3dc8cbe4	0.09804514
186	0xbe05f700	-0.13082504
187	0x3e6b26bf	0.22963999
188	0x3e91a811	0.28448537
189	0x3e65bcf2	0.22435358
190	0x3dd847e9	0.10560591
191	0x3df47d96	0.11938016
192	0xbd83092e	-0.06398235
193	0x3cd2fc21	0.02575499
194	0x3d2c2661	0.04202879
195	0xbda4a25c	-0.0803878
196	0xbe18b5dd	-0.14913125
197	0x3e0ce651	0.13759734
198	0x3e1e1b41	0.15440084
199	0xbe15f795	-0.14645226
200	0x3e03ec85	0.12883194
201	0x3e227b64	0.15867382
202	0x3e908c12	0.28231865
203	0x3e591200	0.21198273
204	0x3e978c77	0.29599354
205	0x3c9da2da	0.019242693
206	0x3e792c3b	0.24333279
207	0x3e8ce7c8	0.27520585
208	0xbe5ea95b	-0.21744291
209	0xbe3dc923	-0.18533759
210	0x3d0522cc	0.032503888
211	0x3dc0d8f1	0.09416378
212	0xbe0d07a5	-0.13772447
213	0xbb9ae601	-0.0047271256
214	0xbd0ca2d5	-0.034334976
215	0x3c990398	0.018678471
216	0xbe2e43cd	-0.17018051
217	0x3d94505f	0.07241892
218	0x3dac0bcf	0.0840069
219	0xbe6d27b7	-0.23159681
220	0xbdb8bf0f	-0.090208165
221	0xbdcdb95d	-0.10045121
222	0xbc8151de	-0.015786108
223	0x3e0fe681	0.14052774
224	0x3c283110	0.010265604
225	0xbdd237b5	-0.102645315
226	0x3e1ab322	0.15107396
227	0xbe025efe	-0.12731549
228	0xbdd28c6c	-0.102806896
229	0xbcb54c95	-0.022131244
230	0xbe4d960a	-0.20076767
231	0xbc8299ec	-0.015942536
232	0xbe48990e	-0.19589636
233	0xbd1efb41	-0.038813833
234	0xbd5a99f5	-0.05336948
235	0xbd5be5a0	-0.053685784
236	0xbe8add0b	-0.27121767
237	0xbe994ce6	-0.2994148
238	0x3b295680	0.0025838912
239	0x3daa9c43	0.08330586
240	0xbd60ae91	-0.05485398
241	0x3e5ef2ed	0.21772356
242	0xbd544ab9	-0.051829074
243	0x3dd45d84	0.10369399
244	0x3e86c571	0.2632251
245	0x3e53b810	0.20675683
246	0xbdea5ef2	-0.11443891
247	0x3e3ad4d1	0.18245246
248	0x3e26da5a	0.16294232
249	0x3d56328e	0.052294306
250	0x3e8b3d2d	0.2719511
251	0xbc000487	-0.007813579
252	0x3cf4e3cc	0.029893778
253	0xbd17c216	-0.03705033
254	0x3dd880b1	0.10571421
255	0x3e06af4c	0.13152808

block3.1.weight f4 [32, 32, 1, 1]
0	0xbe14ec2e	-0.1454322
1	0xbc4c41e4	-0.012466881
2	0xbdb47fd3	-0.08813443
3	0xbd3a04cd	-0.045414735
4	0x3cbb037d	0.022828812
5	0x3db363d3	0.08759274
6	0xbe094fd8	-0.13409364
7	0x3d7c492b	0.061593216
8	0x3dc491c5	0.09598116
9	0x3d923287	0.071385436
10	0x3dc70b59	0.09718961
11	0x3e13db3d	0.14439102
12	0xbdd4724f	-0.10373365
13	0xbe03f583	-0.12886624
14	0x3e470fe0	0.1943965
15	0xbde519df	-0.11186575
16	0x3d67c08d	0.056580115
17	0xbde2b60f	-0.11069881
18	0x3e20b215	0.15692933
19	0xbcdcd37f	-0.026956318
20	0xbd609497	-0.054829206
21	0x3c83c921	0.016087117
22	0x3d349a73	0.044092607
23	0x3d2b2137	0.041779723
24	0x3d3a0acd	0.045420457
25	0x3c3d8151	0.011566476
26	0x3df4f375	0.11960498
27	0xbe093f86	-0.13403139
28	0x3dfffbb3	0.1249918
29	0x3d8f864d	0.07008038
30	0x3e188efc	0.14898294
31	0xbd35c34a	-0.044375695
32	0xbd3a7814	-0.04552467
33	0x3e126d3a	0.14299479
34	0xbe231a1a	-0.15927926
35	0xbe038591	-0.1284392
36	0xbe749029	-0.23883118
37	0xbcdd4fce	-0.027015593
38	0x3df02dae	0.11727463
39	0x3bcd64c6	0.0062681166
40	0xbb056ade	-0.0020357887
41	0xbd1aae12	-0.037763663
42	0xbde9c304	-0.114141494
43	0xbcb6631a	-0.022264052
44	0x3d39f72a	0.04540173
45	0x3c91f590	0.017817289
46	0x3c3a597f	0.011373877
47	0x3cba704d	0.022758627
48	0xbd1f41ed	-0.03888123
49	0xbd9e1683	-0.077191375
50	0xbd194d5e	-0.0374273
51	0xbdb5072e	-0.0883926
52	0x3d4ea446	0.050449632
53	0xbe2637ec	-0.1623227
54	0x3e5d0557	0.21584068
55	0xbd97fa52	-0.07420792
56	0x3dac10e6	0.084016606
57	0xbe372b9e	-0.17887732
58	0xbd53eb74	-0.051738217
59	0xbbac3899	-0.0052557704
60	0xbd272c5b	-0.040813785
61	0xbbab0b6a	-0.0052198665
62	0x3d422b8a	0.047404803
63	0xbc50c123	-0.01274136
64	0xbe1b047c	-0.1513843
65	0xbda2f400	-0.079566956
66	0xbda0ea18	-0.0785715
67	0x3dd5215e	0.10406755
68	0x3d04fb19	0.032466028
69	0xbd811996	-0.06303708
70	0xbe1e05cd	-0.154319
71	0x3d405fbb	0.046966296
72	0xbccc0c4a	-0.024908204
73	0x3dbc74ca	0.09201963
74	0x3e174d09	0.1477548
75	0x3e317ccc	0.17332762
76	0xbd32cfef	-0.043655332
77	0xbe1eaeca	-0.15496364
78	0x3e0dd2d1	0.13849951
79	0xbdfcd42a	-0.123451546
80	0x3d8c1970	0.06840789
81	0xbdff53c5	-0.1246715
82	0x3e1feaae	0.15616867
83	0x3de4b87e	0.111680016
84	0x3ce31498	0.02771978
85	0x3d9ce626	0.07661085
86	0xbe2f2aa2	-0.17106107
87	0xbc916545	-0.017748484
88	0xbe37d282	-0.17951396
89	0x3d6f10e7	0.05836573
90	0xbd0e7ae5	-0.03478517
91	0xbdb040e9	-0.08606131
92	0x3df2ad98	0.11849517
93	0x3e152db6	0.14568219
94	0xbc7d8b79	-0.015475147
95	0xbcc954cc	-0.024576567
96	0x3d8541b3	0.06506672
97	0x3e0e748b	0.13911645
98	0xbd2a1933	-0.041527938
99	0x3b2259c7	0.002477275
100	0xbe0727f1	-0.1319883
101	0x3de052da	0.10953303
102	0x3e5ca059	0.21545543
103	0xbdd6c69b	-0.104871
104	0xbc26c10a	-0.01017786
105	0x3d0fd054	0.035110787
106	0xba7b5292	-0.0009587194
107	0xbd87a5cc	-0.0662342
108	0x3dbe8d82	0.09304334
109	0x3defa89f	0.11702084
110	0x3ac017f4	0.0014655576
111	0x3e3d0acf	0.18461154
112	0xbdb5b297	-0.08871954
113	0x3e0ffbfa	0.14060965
114	0x3cd9e3be	0.026597854
115	0xbe0f97bb	-0.14022724
116	0x3ce8a344	0.028398164
117	0xbda9b2d7	-0.08286064
118	0x3e1d0100	0.15332413
119	0x3c4a66b7	0.012353591
120	0x3d316ff6	0.043319665
121	0xbcb1d70b	-0.021708986
122	0xbe346c25	-0.17619379
123	0xbc715bb6	-0.014731338
124	0xbdd0e935	-0.10200731
125	0x3d576bde	0.052593105
126	0x3cf3922b	0.029732784
127	0xbe17a1be	-0.14807793
128	0x3d20e0e6	0.03927698
129	0x3d44d51c	0.0480548
130	0xbd83c4fa	-0.06434055
131	0x3e13d7e1	0.1443782
132	0x3d75565f	0.059896823
133	0xbccd6e5d	-0.02507704
134	0x3ddda40a	0.108223036
135	0xbcaa8b11	-0.020818265
136	0xbd335823	-0.043785226
137	0xbd7d3407	-0.061817195
138	0xbe1ce699	-0.15322341
139	0xbc00b6d7	-0.007856092
140	0x3dd64013	0.1046144
141	0x3d995864	0.07487562
142	0xbe03a3e5	-0.1285549
143	0x3e16925a	0.14704266
144	0x3cc7e47a	0.024400938
145	0x3e30cff8	0.17266834
146	0xbc11fe56	-0.008910736
147	0x3d8cd5aa	0.06876691
148	0xbd3228df	-0.04349601
149	0xbd1b60d4	-0.03793414
150	0x3e544a29	0.20731415
151	0x3e2bf4c2	0.16792586
152	0x3d1ad519	0.037800882
153	0xbc0e8d7c	-0.008700725
154	0xbcb52ed5	-0.022117058
155	0x3d34b703	0.044119846
156	0x3d06a655	0.03287347
157	0xbd5c55a6	-0.05379262
158	0x3c67e8e4	0.014154647
159	0x3d9ca4dd	0.07648633
160	0xbde7fea7	-0.11327868
161	0xbe0fae30	-0.14031291
162	0xbdc5c1a0	-0.09656072
163	0xbd3de9d2	-0.046365567
164	0xbe0cb6e3	-0.13741641
165	0xbd89f848	-0.06736809
166	0xbd5731eb	-0.05253784
167	0x3dd65fb4	0.10467473
168	0x3e35728c	0.17719477
169	0x3dadd3ee	0.08487688
170	0x3e104fcd	0.14092942
171	0x3c241aba	0.010016138
172	0xbe01886a	-0.12649694
173	0xbc5568ee	-0.0130255055
174	0x3e15b3c0	0.1461935
175	0xbd8b2a98	-0.067952335
176	0x3d9ead94	0.07747951
177	0xbe14cb8e	-0.14530775
178	0x3c95e616	0.01829819
179	0xbdf412a4	-0.11917618
180	0x3e175ff7	0.14782701
181	0x3c1d3f8b	0.009597669
182	0xbe28407f	-0.16430853
183	0x3cdeca65	0.027196119
184	0xbcacd872	-0.021099303
185	0x3cf99dfa	0.030470837
186	0x3dc3dc58	0.095635116
187	0x3d00cc41	0.03144479
188	0xbddf0961	-0.10890461
189	0xbde64902	-0.11244394
190	0x3d38b963	0.045098674
191	0xbdbda9c2	-0.09260894
192	0xbd32c9b1	-0.04364938
193	0x3e209d68	0.15685046
194	0xbd274625	-0.04083838
195	0xbce9348a	-0.028467435
196	0xbdb69fa7	-0.0891717
197	0xbd82c9a8	-0.06386119
198	0x3e2fe822	0.17178395
199	0xbd754018	-0.059875578
200	0xbe04d944	-0.12973505
201	0xbdfc0b0a	-0.12306793
202	0xbb0eb5cc	-0.002177584
203	0xbdd28cad	-0.10280738
204	0x3d63f3ad	0.05565231
205	0x3bbf3e50	0.0058362857
206	0xbde04f29	-0.109525986
207	0x3dbbca58	0.091694534
208	0x3c94c79e	0.018161591
209	0x3dab4f9a	0.08364792
210	0xbd739b86	-0.05947449
211	0xbe0a765a	-0.1352171
212	0xbd4c5f97	-0.04989585
213	0x3d796b5e	0.06089341
214	0x3da1f4c8	0.079080164
215	0x3e1948ec	0.14969224
216	0x3ccb4ccf	0.024816899
217	0xbe0395e4	-0.12850147
218	0xbe19c100	-0.1501503
219	0x3e1db169	0.15399708
220	0xbe266861	-0.16250755
221	0x3d9de34f	0.07709371
222	0xbd10630f	-0.03525072
223	0xbbf1fb76	-0.007384713
224	0xbc3e0a22	-0.011599096
225	0xbdcb8841	-0.09938098
226	0x3dc45358	0.09586209
227	0xbdfc1e6e	-0.123104915
228	0xbd6a257c	-0.057164654
229	0x3d9e6e88	0.07735926
230	0xbd874b50	-0.066061616
231	0xbccaa13d	-0.024735088
232	0x3d5984e5	0.053105254
233	0xbd73a19a	-0.059480287
234	0x3e3b26e2	0.18276551
235	0x3dd18d6e	0.10232054
236	0xbd893780	-0.06700039
237	0xbcd26f08	-0.02568771
238	0x3e23f7d2	0.16012505
239	0xbdd28d1b	-0.1028082
240	0x3c8bc403	0.01706124
241	0xbd21a2d7	-0.039461937
242	0x3e169308	0.14704525
243	0xbd3fde9b	-0.046843152
244	0xbde6ddee	-0.112727985
245	0x3d43506d	0.047684122
246	0x3d049d12	0.032376356
247	0x3c65c646	0.014024323
248	0x3d7295ab	0.059224766
249	0xbd0474db	-0.032338005
250	0x3e147914	0.14499313
251	0xbdf039d6	-0.11729781
252	0x3ddb0dc6	0.106959864
253	0x3df9b798	0.12193221
254	0x3dd20a02	0.10255815
255	0x3e1a1765	0.15047987

block3.2.weight f4 [32]
0	0x3fa1c40b	1.2637953
1	0x3f8076f5	1.0036303
2	0x3f9d7133	1.2300171
3	0x3f939c26	1.1532028
4	0x3f8b4f33	1.0883545
5	0x3fa29895	1.2702814
6	0x3f93ad33	1.1537231
7	0x3fa680a7	1.3008012
8	0x3f86ba09	1.0525523
9	0x3f8fb567	1.1227235
10	0x3f9c089f	1.2190131
11	0x3f96a983	1.1770481
12	0x3f88ddd8	1.0692701
13	0x3f975ad6	1.1824596
14	0x3fa9383e	1.3220289
15	0x3f8b1aa3	1.0867504
16	0x3fa29c95	1.2704035
17	0x3fa4d2a4	1.2876782
18	0x3f8fd554	1.1236978
19	0x3f8ce6df	1.1007956
20	0x3fa026f4	1.2511888
21	0x3f991a83	1.1961216
22	0x3fa1c41c	1.2637973
23	0x3fa34f06	1.2758491
24	0x3f8e439e	1.1114385
25	0x3f8e4c20	1.1116982
26	0x3f99be9c	1.2011294
27	0x3f979702	1.1842959
28	0x3f977879	1.183364
29	0x3f9124de	1.1339376
30	0x3f9b39d5	1.2127024
31	0x3f97c88d	1.1858078

block3.2.bias f4 [32]
0	0x3e39f839	0.18161096
1	0xbdf8dbfb	-0.12151333
2	0x3e3323b0	0.17494082
3	0xbe0e57fe	-0.13900754
4	0xbdf9cca7	-0.121972375
5	0x3e36e3f3	0.17860393
6	0xbdf92cc1	-0.12166739
7	0x3e53c429	0.20680298
8	0xbdf6a040	-0.12042284
9	0xbe035ab5	-0.1282757
10	0x3e1cce5a	0.15313092
11	0x3e28c067	0.16479646
12	0xbe053962	-0.13010171
13	0xbe178aef	-0.14799093
14	0x3e65600a	0.22399917
15	0xbdf45f67	-0.11932259
16	0x3e44e09a	0.19226304
17	0x3e7cbf5e	0.24682376
18	0xbe015000	-0.12628174
19	0xbdfb8280	-0.1228075
20	0x3e2d2c0b	0.16911332
21	0xbe029d12	-0.1275523
22	0x3e37e1f2	0.17957285
23	0x3e452494	0.19252235
24	0xbe05bde8	-0.13060725
25	0x3deb1fab	0.114806496
26	0x3e1e9f52	0.15490463
27	0xbe164509	-0.14674772
28	0xbe05c486	-0.13063249
29	0x3e11f04f	0.14251827
30	0x3e24b77c	0.16085619
31	0x3e0e8ae5	0.13920172

block3.2.running_mean f4 [32]
0	0x3da1c909	0.078996725
1	0xbdb82bfc	-0.08992764
2	0x3d790aa7	0.060801174
3	0xbdfaedf1	-0.12252415
4	0xbd4a2a28	-0.04935661
5	0x3d5a2abe	0.05326342
6	0xbdb4095e	-0.08790849
7	0x3d3c08b6	0.045906745
8	0xbd00fe0d	-0.03149228
9	0xbddf686c	-0.10908589
10	0x3cdbed89	0.026846664
11	0x3dcd1f25	0.10015706
12	0xbd6449db	-0.055734497
13	0xbde0344a	-0.10947473
14	0x3d68b828	0.05681625
15	0xbd7cb761	-0.06169832
16	0x3db084f1	0.086191066
17	0x3db5d447	0.08878379
18	0xbd991c64	-0.07476118
19	0xbd8aff43	-0.067869686
20	0x3d5f4dee	0.05451768
21	0xbe248070	-0.1606462
22	0x3d178538	0.03699228
23	0x3dba1494	0.09085956
24	0xbdc5243f	-0.09626054
25	0xbbad9e36	-0.005298401
26	0x3d2c9c07	0.042140987
27	0xbdc2d8c3	-0.09514
28	0xbd88afd8	-0.066741645
29	0x3da0130d	0.07816134
30	0x3d3c6ddc	0.046003208
31	0x3ca0e335	0.01963959

block3.2.running_var f4 [32]
0	0x3dd87730	0.10569608
1	0x3d93e9a4	0.07222298
2	0x3dc4ad97	0.09603422
3	0x3e1ad39d	0.15119787
4	0x3daeafb1	0.08529604
5	0x3dcb8841	0.09938098
6	0x3e11cbfb	0.14237969
7	0x3da4f579	0.08054633
8	0x3dda3e8f	0.10656463
9	0x3dcf2972	0.10115327
10	0x3e324c19	0.17411841
11	0x3da6578b	0.08122166
12	0x3d83952b	0.06424936
13	0x3e04571b	0.12923853
14	0x3d80bd27	0.06286078
15	0x3dbecad8	0.09316033
16	0x3df31a3c	0.11870238
17	0x3dea57bc	0.11442515
18	0x3e08bb49	0.13352694
19	0x3dbad78f	0.09123146
20	0x3d85c91c	0.06532499
21	0x3e1645bf	0.14675044
22	0x3dab023e	0.08350037
23	0x3d572833	0.05252857
24	0x3e175986	0.14780244
25	0x3e7c8903	0.24661641
26	0x3df0c909	0.117570944
27	0x3dcd4d28	0.10024482
28	0x3e2d6234	0.16931993
29	0x3dce599f	0.100756876
30	0x3dd4c29e	0.10388683
31	0x3df22c82	0.118248954

fc.weight f4 [1, 32]
0	0xbeab29c7	-0.3343031
1	0x3e45ce01	0.19316866
2	0xbe94ae62	-0.29039294
3	0x3e7451a1	0.23859264
4	0x3e789503	0.24275593
5	0xbebb7eba	-0.36620122
6	0x3e9019b6	0.28144616
7	0xbe7e2c3f	-0.24821566
8	0x3e3cc2a9	0.18433632
9	0x3ead78f3	0.3388134
10	0xbe7c4dc8	-0.24639046
11	0xbe5a3835	-0.21310504
12	0x3e8360e0	0.25659847
13	0x3e674c38	0.22587669
14	0xbe849f38	-0.25902724
15	0x3e899837	0.26873943
16	0xbe9d483f	-0.30719182
17	0xbe4f41d1	-0.2023995
18	0x3e9085b5	0.2822701
19	0x3e5f1175	0.21784003
20	0xbea027ac	-0.31280267
21	0x3e839b02	0.257042
22	0xbeb7da80	-0.3590889
23	0xbea746e9	-0.32671288
24	0x3e8efb55	0.27926126
25	0xbda2fe6e	-0.07958685
26	0xbe6f7836	-0.233857
27	0x3e5721be	0.21008965
28	0x3e870459	0.26370504
29	0xbe49da5d	-0.19712205
30	0xbe957692	-0.29192024
31	0xbe9f7cff	-0.31150052
