classifiers/EEGNet_20.02_16.34_epoch_19.pt (torch, 25547 bytes, 17 tensors)

block1.0.weight f4 [16, 1, 1, 32]
00000000: 223b fe3d fc95 0a3e e60b 54bd d1c1 1b3e
00000010: 158f 4fbd 7136 c33c 4315 c7bd 8af8 bc3d
00000020: fac6 133e 45a2 10be 4cd3 103e 6b12 ad3c
00000030: c00d f53d 77b5 603c 5aa5 9b3d 61ac 06bd
00000040: 28fe 033e 8b23 a03c 6e2d b3bd 8913 2c3d
00000050: 84de a8bd e83b a4bc 01ef 8fbd 88ac f63d
00000060: 2969 0abe 06ed 9ebd e137 3abd 0a61 cabd
00000070: 827c d83c 25e5 28be 8065 2e3e 1efd 0cbe
00000080: 2107 013e 63f2 3b3c 8faa a6bd 135f af3d
00000090: e552 1e3c 7070 023e 299c f7b9 02fe a9bd
000000a0: e49c 8f3c 73e8 92bd 592b 863d 6eb1 1c3e
000000b0: 6c7e ae3d 9fb3 cfbd 39c3 a73d a949 e43c
000000c0: d178 bb3d b473 e9bd 67df 42be 9c9b a9bd
000000d0: 9c5c 0fbe ef67 183e 7907 603d 9506 923d
000000e0: 4e76 563d ad5b 15ba 7e03 133e 45fb f5bd
000000f0: debc 703c f4c7 f5bd 27c8 683d beae 5ebd
00000100: acf7 153d 9297 71bd 329f fe3d b0bd 00be
00000110: 6fee febd 2098 fbbd ceb2 153e f867 373d
00000120: 5865 203e 88bb 21be 3ff0 3bbe 91a9 15be
00000130: 4e8f 01be d5ee 863d c67d 6b3d 4ac2 123e
00000140: e6cf c6bd f7c6 01be ed13 b63d b263 9dbd
00000150: c951 d93d 2b5b 2dbd 62d7 ce3d d4b9 10be
00000160: 19e7 bcbd 1a06 623d 6a0c 223d a329 34bd
00000170: 922b e23d b3f0 033e 3dd5 f6bd 4680 b4bd
00000180: 05d9 243e 1971 7abd 681c 82bd 180b 2fbe
00000190: 11a5 cdbd 4d16 3a3d 15bd c4bc 26e8 04be
000001a0: ba77 893b 8da5 f7bd f5a4 18be 32cd bfbd
000001b0: d22c 21be f2eb f7bd 8902 2e3e 6374 da3c
000001c0: 36ac 4e3d 8f1b 2bbe 132c f5bd a52a 86bd
000001d0: 343f a03c 5b1d 2abe 49ff acbd 0b2c e6bd
000001e0: 00d3 3dbc 1c36 aabd fb44 eabc 2c7e 09be
000001f0: b0d2 0bbe 94ae efbd 4b2d 9abd 56fa 20be
00000200: 11cd 183e c626 07bd 3ad4 1c3e 70a6 6f3d
00000210: fbd4 11be 36d2 043e 95f8 26bd 4296 6bbd
00000220: 9411 0bbe dfb4 29be 70d2 773d 0f02 eabc
00000230: dbe4 9f3d cc17 0bbe 122b 0d3e 750c 00be
00000240: 813b c1bc 6210 3d3d 40d9 c83d fca2 153e
00000250: 44d1 293e bee8 09be 7aa7 4f3d 08e8 8abd
00000260: e22a 42bc ea18 02be 6298 293e b7e4 f8bd
00000270: 2222 cf3d 95dc 873d b987 7d3d 0871 b8bd
00000280: 5da6 183e fac5 dc3c 6aae dd3b 1cc3 31be
00000290: 1a3e 713d 25ce 34bd 2958 c9bd 587d 103e
000002a0: 2ccd de3c 629a f1bd c3e0 e3bd c3d3 c2bc
000002b0: f8ba b33d eaa1 79bd dc74 f8bd 084a a8bd
000002c0: 1840 1cbe 97cc 503d e848 fe3d 3be7 40be
000002d0: 7cfa a53c f099 9e3d 3d22 963c 20ee a1bd
000002e0: 61ae 9f3d c8e8 a23d 5d91 4f3d 19ce 3ebd
000002f0: d63a 65bd 7b30 823c fb4f 0fbd e8ed 66bd
00000300: 4223 db3d 4c85 153e 38b2 bdbc d01b 33bd
00000310: 9bff 0e3b b88b bebb 4fb7 3d3d 44b5 473d
00000320: f35e 26be 60c5 87bd 3762 1d3e 4ba4 9f3d
00000330: 4519 2f39 36c1 c9bd 4318 d7bd 46c4 1fbe
00000340: 6744 46bd e6ba 923d 53fb fa3d 6734 b23d
00000350: 27ea 1fbe a91d debd 1d42 d5bc 2e83 353e
00000360: 0b2a 073d a454 33bd fba9 8d3d e8ca 8dbd
00000370: 143b e0bd 6ced 0c3e f8d9 91bd ed6c f5bc
00000380: 1416 30be ac96 fa3d 60bd 0b3e 52b6 863d
00000390: 1042 f6bd f318 2dbe 45e0 0ebe 2ec8 083e
000003a0: a8c9 b03d 6065 1c3e e14e ca3d 2c16 513d
000003b0: bc7a 8f3b ca6b 02be eb49 14be 4ec4 1fbe
000003c0: b36c b13d 9f9e 89bd a061 5bbc 6697 a7bd
000003d0: 22b9 91bc c643 e9bd 9869 d6bd 215e 903d
000003e0: 54f9 26bd 6df0 f83d ea22 36bd 6d36 f9bd
000003f0: 4b31 eebc 30c9 afbd d4df 57bd 5fd2 27be
0.124136224 0.13533777 -0.05176916 0.15210654 -0.050673563 0.02382967 -0.09720852 0.092270926
0.14431372 -0.14124401 0.14143103 0.021126946 0.11965513 0.01371514 0.07599898 -0.032879237
0.12889922 0.019548198 -0.087488994 0.042010818 -0.082455665 -0.020048097 -0.07028008 0.120446265
-0.13516678 -0.077600524 -0.045463447 -0.0988179 0.026426557 -0.16493662 0.17030907 -0.13768432
0.12600376 0.011471364 -0.08138 0.08563056 0.009663318 0.12738204 -0.0004722786 -0.08300401
0.017530866 -0.071732424 0.06551237 0.15302059 0.08520207 -0.10141682 0.08191533 0.027867155
0.09153903 -0.11399022 -0.19030534 -0.08281633 -0.14000171 0.14883398 0.054694626 0.07130162
0.052358918 -0.00056975597 0.14356801 -0.120108165 0.014693467 -0.12001029 0.056831505 -0.054365866
0.03661315 -0.05898244 0.12432708 -0.1257236 -0.12447821 -0.12284875 0.1461899 0.044776887
0.1566366 -0.15794194 -0.18353365 -0.14615466 -0.12652323 0.06588522 0.057492994 0.14331928
-0.09707622 -0.12673555 0.08890519 -0.07685031 0.106113024 -0.042323273 0.10099675 -0.14133388
-0.09223766 0.0551816 0.03956262 -0.04398502 0.11043467 0.12884788 -0.12052391 -0.08813529
0.16098411 -0.061143015 -0.06353074 -0.17094076 -0.100412495 0.045431424 -0.024015943 -0.12979183
0.0041951807 -0.12092123 -0.14906676 -0.0936531 -0.15739754 -0.1210555 0.16993155 0.026666826
0.050457202 -0.16709732 -0.11971297 -0.065511025 0.019561388 -0.1661276 -0.08447129 -0.11238869
-0.011585951 -0.08311102 -0.028597346 -0.13427037 -0.1365459 -0.1170322 -0.0752817 -0.15720496
0.14921977 -0.03299596 0.15315333 0.058508337 -0.14241402 0.12970814 -0.04076441 -0.057516344
-0.13580924 -0.16572903 0.060503423 -0.028565435 0.078073226 -0.13583297 0.13785961 -0.12504752
-0.023587944 0.046158202 0.09807062 0.14612955 0.16583735 -0.1346769 0.050696827 -0.06782538
-0.011851044 -0.12704816 0.16562036 -0.12152999 0.10113932 0.066338696 0.061897013 -0.09005934
0.14907213 0.026949871 0.0067651765 -0.17359585 0.058897115 -0.044141907 -0.09831268 0.14110315
0.027197443 -0.11797024 -0.11126854 -0.023782616 0.08775896 -0.06094543 -0.12131664 -0.08217245
-0.15258825 0.050976362 0.124162495 -0.18838207 0.020261042 0.07744205 0.018326873 -0.07906747
0.07796932 0.07954556 0.05067574 -0.04658327 -0.055964313 0.015892258 -0.034988385 -0.05637923
0.10700084 0.1460163 -0.02315627 -0.043727696 0.0021819833 -0.0058149956 0.046317395 0.048756853
-0.16247158 -0.06629443 0.15369497 0.07795008 0.00016698714 -0.09851305 -0.105026744 -0.15602216
-0.048405077 0.07164554 0.122549675 0.08701401 -0.15616666 -0.10845501 -0.026032502 0.17725822
0.03299908 -0.04378189 0.06917187 -0.06923467 -0.10948768 0.13762444 -0.07121652 -0.029959166
-0.17195922 0.1223577 0.1364646 0.065777436 -0.12024319 -0.16904049 -0.1395274 0.13357612
0.08632213 0.15273046 0.09878326 0.051046535 0.0043786447 -0.12736431 -0.14481322 -0.15602228
0.08663311 -0.06719708 -0.013389975 -0.08183174 -0.017788474 -0.1138988 -0.10469359 0.07049204
-0.04076512 0.121552326 -0.04446689 -0.12168584 -0.02907624 -0.08583295 -0.052703694 -0.16388844

block1.1.weight f4 [16]
00000000: 0df1 7a3f db0b 803f 438f 813f 1448 823f
00000010: 1184 7c3f 8389 843f 6a9f 803f e484 7c3f
00000020: 26d9 7d3f 71a3 7e3f 7cc9 7f3f 7a94 7e3f
00000030: f431 823f 5ece 7b3f a40f 7c3f 160e 813f
0.98024064 1.0003618 1.0121845 1.0178246 0.9863902 1.0354465 1.0048649 0.98640275
0.9915947 0.9946814 0.99916816 0.9944531 1.0171494 0.98361766 0.98461366 1.0082424

block1.1.bias f4 [16]
00000000: 1d90 623a e82d 1c3b 1305 3b3c 6d78 bcbb
00000010: bf4f 4fbb 7c97 033c 9ef2 3e3b 2269 f63b
00000020: 82f4 ecba f3ad fd3a d6e0 393b 81b0 eabb
00000030: 9668 913b 9b11 cbba b8df baba ce3f 8d3b
0.00086426904 0.0023831073 0.011414784 -0.0057516606 -0.0031633226 0.008031722 0.002913631 0.007519857
-0.001807824 0.0019354209 0.0028362772 -0.007162154 0.0044375164 -0.0015492918 -0.0014257347 0.0043105846

block1.1.running_mean f4 [16]
00000000: a57e 28b3 244e 86b2 618b 7e32 a28d f032
00000010: 837f 7b30 c824 a132 ca47 9231 9412 b6b0
00000020: 5250 d2b2 0fc4 7633 0a28 5533 168c 2532
00000030: 0e30 8732 abea 8f32 64df 3832 f8f5 ccb2
-3.923073e-08 -1.5635187e-08 1.4816437e-08 2.8004084e-08 9.1494473e-10 1.8759593e-08 4.2573207e-09 -1.3247523e-09
-2.4483743e-08 5.7454653e-08 4.9629342e-08 9.636116e-09 1.5737921e-08 1.6754106e-08 1.0761003e-08 -2.386058e-08

block1.1.running_var f4 [16]
00000000: 404a 532f 648d e12e 56ed 392f 1a8f 4f30
00000010: 9105 ac2e e19d 072f b3ac 1d2f eb3c 8f2f
00000020: 743a 322f 8046 ad2f 828f ee2f 3866 242f
00000030: ae4e 312f 6709 d72e 183f ff2e f68e 2f2f
1.9216717e-10 1.02569314e-10 1.690997e-10 7.550952e-10 7.822643e-11 1.2334268e-10 1.4340422e-10 2.6054833e-10
1.6209772e-10 3.151861e-10 4.3393916e-10 1.4952029e-10 1.6126009e-10 9.778738e-11 1.1607265e-10 1.5966947e-10

block2.0.weight f4 [32, 1, 64, 1]
00000000: b53f 113d 0777 c9bd 1c36 a8bd 4bae dcbd
00000010: 16ec d53d 3b26 fbbd bba9 b63d 7daf 59bb
00000020: 606e 89bc abec 9e3d 45de 54bc 34ca 9a3d
00000030: c9a5 b63d ed35 e8bd bef4 4f3d 0dcb bd3c
00000040: 2dd2 d83c 8d9e 933c c0cb 043d 119f 77bd
00000050: cd38 91bc 83b0 dd3d 9d6a 993d 8523 70bc
00000060: d2e9 ffbd cd0f 07bb 84b3 bdbd 8639 bb3d
00000070: 6943 b0bd 3208 7bbc da5e 06bd 4b92 8c3c
00000080: c342 e63d 36df dc3b bfac 853d 3d4a b83d
00000090: 3feb b83d 0053 5dbd 638a f1bc 9f52 613d
000000a0: 066a 08bd 7783 5b3d 1373 b5bc 4ce0 c4bd
000000b0: bca0 633d e389 683c 2e5e 703d a61b 023e
000000c0: 35b3 b03d 0c75 f43d 06d8 d23b efc4 debd
000000d0: d8cf b3bd ba1a 9fbd 1676 ecbd ad8b 73bd
000000e0: 1c91 e6bd 6c70 ebbd 5604 99bd 4d4c fcbd
000000f0: 20d8 97bd 2e70 4a3d ba86 d63d 7c93 0bbd
00000100: b4b9 ebbc 50af a23d 1654 47bd 11b1 3dbd
00000110: 85db b93d 795f c2bd d198 f13c 8dfe e53d
00000120: 280e f83c 9683 203d 8466 81bd ae4e 243c
00000130: 4363 cc3c 19dc 233d 1a10 533d daa8 f73d
00000140: 3d01 aabd 6e27 8a3c 0064 54bd 66a2 aebd
00000150: f818 e73b e60e c5bd 1417 d03d c24d e93c
00000160: 0ea7 60bd 5202 a03d 288d d4bd 3d00 0cbd
00000170: 092d 27bc 0a88 bebd e0c3 87bd 256f ebbb
00000180: 3140 dd3d 8d09 093e e3aa bf3d a9de 77bd
00000190: 6b3a 8abd c8f3 f43d 77ea 3d3d 171c 613c
000001a0: b6fd a13b e458 b7bd 1eea 35bd 15c2 023e
000001b0: cc6c 02bd b536 9d3b b36f c1bd ce71 78bd
000001c0: b26f 293c c4e0 84bd 7d5f babb 39d2 763d
000001d0: bcbf d8bd 10f2 593d 707b 92bd 4d90 4abd
000001e0: d14d 843d dba0 ed3d 51a7 a3bc 68dd 18bd
000001f0: 6115 c5bd ae5b 46bd 0258 bbbd 60fc 52bc
00000200: f565 da3c ae60 f4bd 1d2e db3d 229e 9a3d
00000210: 653a 04be 88b9 87bd ea59 093d 8ccb d5bc
00000220: e471 43bc 8fc6 66bd 8908 c73d 2aae 97bd
00000230: 3369 c53d e561 d6ba 8d7a ef3c 2992 cb3d
00000240: 5082 99bc 345e 93bd 79ff bebc cd33 c53d
00000250: 4814 c9bd 8b35 ac3c 9d16 07be 546d 6b3d
00000260: ef90 2e3d 184c e83a 7df6 3d3d 3b8b e0bb
00000270: 9cd5 7e3d 4ae5 cfbd c7a8 aabc c301 593d
00000280: ba51 f93d 0c9a 793d d66e c9bd c3f9 b43d
00000290: bd2c 17bd c06d 0cbd 15ea f3bd 598e ebbc
000002a0: df38 ad3d b9eb 0c3c 235b a1bd be61 ad3c
000002b0: 01c0 1fbd 7f7c d83d 73d8 dcbd 1f91 1fbd
000002c0: 739c f4bd e753 44bd 7402 1f3d 2024 f33d
000002d0: b926 873c 2fc1 f13d e9f7 813c 9fc8 973d
000002e0: 119b d23d 9dd4 d33d a93a 97bd 7bb1 e23d
000002f0: e49d a03d 82da 6ebd 7ea8 7abd 789f d5bd
00000300: 7292 273d e515 cabd 0c80 633d 013c 243d
00000310: d3d2 d6bd 35b3 193d 4946 d7bb 8f8e 713d
00000320: e6ab 883d 16a0 00be f6b9 e53d 1248 d03d
00000330: 2149 393d 9bcd ffbd ee06 3bbd 8281 35bd
00000340: 9a34 26bd 56b7 803d 28a8 1f3d dd87 b53d
00000350: 4ecf 73bd 0c03 463d 5239 6b3d f043 bbbd
00000360: 3323 f2bd 82b0 7cbd fd7c c23d c1e5 e4bd
00000370: f19c d3bd 414c 9a3d 711d 963d 1af4 de3d
00000380: 49a5 b4bd 0f8b aebd cd4d 943d ed6a ef3d
00000390: b432 a23d 3cdb 9f3c 73b8 223d c853 de3d
000003a0: 28e8 b6bd 171c 87bd 3019 cf3d 7133 95bd
000003b0: 4915 91bd ba8c a73d 2d14 0e3d e7d1 113d
000003c0: 3933 78bd 1ef2 19bc d79d e53d a0e1 aabd
000003d0: fdef b3bb cbaf 593d a25e c1bd e4e1 ef3d
000003e0: 4504 88bd 5dfe 11bd 5b98 2cbd 7b88 b7bd
000003f0: 483f 01be 943c 823d 8442 f33c 0bf7 fabd
0.035461146 -0.09837156 -0.082134455 -0.10775431 0.104454204 -0.12263151 0.08919092 -0.0033216171
-0.016776264 0.077599846 -0.012992446 0.075580984 0.0891834 -0.113384105 0.050770514 0.023168111
0.026467407 0.018019939 0.032420874 -0.060454432 -0.01772728 0.108246826 0.07491038 -0.014656906
-0.124957696 -0.0020608783 -0.092627555 0.09141831 -0.086066075 -0.015321778 -0.0328053 0.017159602
0.112432025 0.006740476 0.06527089 0.08998535 0.09029245 -0.054034233 -0.029484933 0.055010434
-0.033304237 0.05359217 -0.022149598 -0.09613094 0.05557321 0.014193031 0.058683567 0.1270586
0.08627931 0.119363874 0.0064344434 -0.10877406 -0.087798774 -0.077687696 -0.115459606 -0.059459377
-0.11258146 -0.11496052 -0.0747153 -0.12319241 -0.074142694 0.04942339 0.10474916 -0.0340762
-0.028775074 0.079435945 -0.048664175 -0.04631144 0.09075073 -0.09490866 0.029491814 0.11230192
0.030280188 0.03918799 -0.063183814 0.010028524 0.024949675 0.040004823 0.051529028 0.12092753
-0.083010174 0.016864505 -0.05185318 -0.08527069 0.007052537 -0.09621982 0.10160652 0.02847946
-0.054846816 0.078129426 -0.10378486 -0.034179915 -0.010203608 -0.09303291 -0.06629157 -0.0071848803
0.10803259 0.1338255 0.09358766 -0.06051508 -0.067494236 0.1196056 0.04636618 0.013739607
0.004943575 -0.089525014 -0.044412725 0.12769349 -0.031842038 0.0047977814 -0.09445133 -0.060655408
0.010341572 -0.06488183 -0.0056876526 0.060259078 -0.105834454 0.053209364 -0.0715245 -0.049454022
0.06460155 0.11602946 -0.019977244 -0.037320524 -0.09623218 -0.048427276 -0.091476455 -0.012877554
0.026659945 -0.11932503 0.10702155 0.07549693 -0.12912901 -0.06627184 0.033533014 -0.026098035
-0.011929009 -0.056341704 0.09718425 -0.07406266 0.09639206 -0.0016356079 0.029233241 0.09939987
-0.018738896 -0.07195702 -0.023315178 0.09629021 -0.098183215 0.021021625 -0.1319222 0.05747731
0.04261869 0.0017722873 0.046377648 -0.006852535 0.062215433 -0.10151155 -0.020832432 0.052980196
0.12173791 0.060937926 -0.098355934 0.08836701 -0.0369079 -0.034284353 -0.11909882 -0.0287544
0.08458113 0.008601123 -0.07878711 0.021164771 -0.03900147 0.10570621 -0.10783472 -0.038956758
-0.11943903 -0.047931578 0.0388207 0.11872125 0.016497957 0.11804425 0.015865283 0.07411312
0.10283483 0.10343287 -0.073842354 0.11069008 0.07842615 -0.058313854 -0.061195843 -0.10430807
0.040911146 -0.09867457 0.055542037 0.040096287 -0.1048943 0.03752442 -0.006569658 0.058973845
0.06673412 -0.12561068 0.1121711 0.10169996 0.045235757 -0.12490388 -0.045660906 -0.04431296
-0.04057751 0.062849686 0.038978726 0.088638045 -0.059523873 0.04834275 0.05742771 -0.091438174
-0.1182312 -0.06169177 0.09496496 -0.111766346 -0.103326686 0.075340755 0.07329834 0.108864024
-0.08820588 -0.08522617 0.07241402 0.11690316 0.07919827 0.019513719 0.039726686 0.10855824
-0.08930999 -0.065971546 0.10112226 -0.07285202 -0.07084138 0.08181138 0.03468721 0.03560057
-0.060595725 -0.009396104 0.11211746 -0.08343816 -0.0054912553 0.053146165 -0.09441878 0.11713007
-0.06641439 -0.03564297 -0.042137485 -0.089615785 -0.12621796 0.063592106 0.029694803 -0.12254151

block2.1.weight f4 [32]
00000000: 734e 7d3f e869 7b3f 0f58 7f3f e34a 803f
00000010: 5b34 7f3f fd42 823f b0d3 833f cd4c 803f
00000020: aea8 7d3f f0a0 7d3f c822 803f 647e 853f
00000030: bd04 813f 3a4a 7f3f c2d4 7d3f 42e2 7c3f
00000040: 87fd 7f3f d285 7d3f 143b 803f 98d0 7d3f
00000050: 3f7c 803f 9d8a 7e3f 7c65 7f3f 0169 7e3f
00000060: db77 843f 9739 7b3f 3896 7d3f 1369 7c3f
00000070: 1d3d 7d3f f9bb 7c3f 85aa 813f 3246 7f3f
0.9894783 0.98208475 0.9974374 1.0022854 0.99689263 1.0176693 1.0298977 1.0023438
0.9908551 0.99073696 1.0010614 1.0429196 1.0079571 0.99722636 0.9915277 0.9878274
0.9999623 0.9903232 1.0018029 0.99146414 1.0037917 0.9943026 0.9976423 0.99378973
1.0349077 0.9813475 0.9905734 0.9859783 0.98921376 0.98724324 1.0130163 0.99716485

block2.1.bias f4 [32]
00000000: e970 00bb e95c 32bc 8901 bdbb e0e5 b13c
00000010: e204 80bc 657f d6bc 40ef d1bc cdc0 74bc
00000020: f455 38bc bea4 8dbb e1ef 60bb 2770 98bc
00000030: 3694 62bc 1843 45bb 2337 6cbc bcda c6bc
00000040: 25fe 01bc c7ee 9abc d07e e0bb c6bf 8bbc
00000050: b86b 50bc 65b5 3b3a 30ca e339 7610 b0bc
00000060: 7fbb 763b 25af bdba 0d80 02bc cd1a 56bc
00000070: f5a4 ccbb 635c 85bc 308b eebc f0ab bcbb
-0.001959855 -0.010886409 -0.0057680053 0.021716058 -0.015627328 -0.026183793 -0.025626779 -0.014938545
-0.011250962 -0.0043226173 -0.0034322666 -0.018608166 -0.013829282 -0.0030099805 -0.0144174425 -0.024274223
-0.007934128 -0.018912686 -0.0068510547 -0.017059218 -0.012720995 0.0007160514 0.00043447455 -0.021492224
0.0037648377 -0.0014471753 -0.0079651 -0.013067913 -0.0062452503 -0.016279405 -0.029119104 -0.0057578012

block2.1.running_mean f4 [32]
00000000: 6553 23b9 a974 1fb9 fe2a 123a d89e 7cb9
00000010: 9a41 2e3a 672f 3d3c e938 ba3b ffae 783b
00000020: ab32 5aba a177 5f39 da1a 4fba 801f 2c3c
00000030: 42f5 abb9 c9a4 3dba 20ce 10bb 328a 9e3b
00000040: c201 953a 173f 1a39 a766 c13a fe02 2e3a
00000050: 171d d63a ce5a 5cba f86c c7b9 e364 a43b
00000060: 4457 b63b 41d5 2a3b 06b6 313a 7ced 063a
00000070: 5144 b8b9 22f2 843a de9e 093b 7b3c c538
-0.00015575958 -0.00015206881 0.00055758643 -0.00024091767 0.00066473486 0.011546946 0.0056830538 0.0037946103
-0.000832359 0.00021311502 -0.00079004245 0.010505557 -0.00032798393 -0.0007234333 -0.0022095516 0.0048382515
0.0011368322 0.00014710087 0.0014755324 0.0006638019 0.0016335574 -0.0008405865 -0.00038037426 0.0050169094
0.005564602 0.002606705 0.0006779138 0.0005147082 -0.00035146115 0.0010142962 0.0020999233 9.4049574e-05

block2.1.running_var f4 [32]
00000000: 5f10 b135 2b63 8d35 3f85 6d35 0d65 4036
00000010: ee25 2e36 ec6e 2b37 2566 5138 5b01 8537
00000020: f112 3b35 4d33 8035 48bc a236 71d5 8437
00000030: d728 cb36 d702 1f36 b25c a736 4820 8036
00000040: a7fc da36 4684 bc35 16d9 de36 f808 3c37
00000050: affe 8f37 3438 4636 4ca6 9736 d74e c036
00000060: e191 9a37 3926 a436 22f7 bb35 5d02 f835
00000070: 0a6d 2a36 c263 9136 c8e4 cb36 a7c0 aa36
1.3192292e-06 1.053418e-06 8.848328e-07 2.8669049e-06 2.5950098e-06 1.021822e-05 4.9924613e-05 1.5855467e-05
6.969049e-07 9.551674e-07 4.849895e-06 1.5835018e-05 6.054626e-06 2.36945e-06 4.987779e-06 3.8184553e-06
6.526319e-06 1.4045588e-06 6.6413877e-06 1.1207761e-05 1.7165525e-05 2.9537014e-06 4.51951e-06 5.731224e-06
1.842616e-05 4.8920306e-06 1.4004511e-06 1.8478128e-06 2.5395443e-06 4.33295e-06 6.076505e-06 5.0888225e-06

block3.0.weight f4 [32, 1, 1, 16]
00000000: 99f2 febd c887 2d3e 3588 233e 8377 193d
00000010: 1d7b e8bd ad67 5a3d 1c55 b6ba 5745 613e
00000020: 9099 163d a9aa a43c 9809 a93c 6dce 083e
00000030: 1315 65bb 1a9b 543e e869 063e 9853 34be
00000040: a4a2 2a3c 61ac 50be e1a1 39be 8b9b 693d
00000050: b613 803d 1ef5 96bc 33a3 743e e738 05be
00000060: cb7e bebd c812 dcbc b196 293c a5b9 95bc
00000070: 1e49 613e ebb2 d1bd a1b7 febd 26eb db3c
00000080: b54a 3f3e 483f 7f3d 3892 0b3e eeaf 3d3d
00000090: ec49 523e f49a 103e c87e 343e 6e85 f3bc
000000a0: 33a1 4ebe a85b efbd 5e2a a63d 9fd3 363e
000000b0: a7d7 b8bd 86ee 563e ac8d 2a3d 3a33 1d3c
000000c0: 8fe8 85ba bccc 62bd d8e6 633e c0e8 92bb
000000d0: 57c1 0c3e 3ecd 66be d7a6 12be 8dd2 ee3b
000000e0: b64f 363e 5519 ca3d 8dcc ee3c 6f6f 82be
000000f0: 353a 0bbc 8d4e 31be 86c5 64be 4ac7 c23c
00000100: 97dc 18be 5596 693e d59d 09be e094 ad3d
00000110: e946 1c3e bbf0 38be d6c5 0f3e b4a0 02bd
00000120: 5dee 093e 3271 7a3e 84a0 eabd 8149 e8bd
00000130: 3d30 473e 1406 b53c 38a8 e4bc 7df0 393e
00000140: 8022 1bbe c43d 3dbd ef68 0d3e 207c 853d
00000150: 397a 3fbe fcfe 1e3d 411a 59be 7600 1ebe
00000160: 9f51 0a3e ec28 b8bd b5f7 0dbe 8f2d be3b
00000170: 36a0 2d3d de67 29be a7f8 2fbe 2022 73be
00000180: 4830 263d 2fa1 35be a810 bd3a a1d0 8cbd
00000190: c84b 34be 37cf c3bd a871 51be ce4a 12be
000001a0: 5dd6 c6bc 4309 6bbe 3f3a 71be 76be 213e
000001b0: 795e 97ba 780d 08be a4bb 06bd f1fd 213e
000001c0: da90 53be 49b3 05be f56b 34be 04fd 84bc
000001d0: 068d 2bbc d14b 44be f524 293e c7df 45be
000001e0: 77ef 573e a609 3fbe 5fe9 6dbd ad94 b93c
000001f0: ef4e 06be 1e17 4e3e 573f 43be 9f33 05bd
00000200: b571 3bbe 828c 893d cc7a 553e fe48 6c3e
00000210: b627 f33c 5150 01be 8a1f 7a3e 7075 963c
00000220: a4fa 273e 72fd 09be a0f6 efbd e035 50be
00000230: 275f 663e d458 2a3d da68 31be 5887 b53c
00000240: 0489 e3bd ac97 133c 8574 a23d 3d76 01be
00000250: d5f0 2c3d fd2b 22be a931 2f3d 37d4 78be
00000260: 762f 173d d092 7a3e 9e0a 623e 995e b03d
00000270: 933d 343e 2ffa 763e fb27 863d 2869 a53d
00000280: 7d52 413d ef63 6b3e 9b5c 673e a544 d1bd
00000290: 0be4 44bb e5bb febd 65bc b33d 4fa5 79be
000002a0: d16e ac3d 25c8 78bd 3fe2 c23d 3c3c 9f3d
000002b0: 2537 dbbd 3657 0a3e 0c48 dc3d 6682 57be
000002c0: 2d0e 8b3e 9218 6b3e 9f45 363e f6ac ea3b
000002d0: 7066 f53d 6e7e d8bd d022 39bd b0da 183e
000002e0: 3a38 103e b9ea 053e 6af1 58be df2b 6d3e
000002f0: 815a a9bd d3e5 6b3e eee3 643e 7705 d63d
00000300: d685 843e 83fd 233e 501b 203e fd46 8fbd
00000310: 78d8 773e a512 9e3d 1b55 213e e70c 27bd
00000320: 8a05 473e 498b 733e 32f8 34be b7ce 5f3e
00000330: 2cb3 12be f36f 17be 1de3 41be 7a48 b63d
00000340: 79bb 3dbe 5b40 c0bd a7ad 01be b5d7 753d
00000350: ec4f 77be 25d6 e3bd 6f3d 6abb 9605 9a3c
00000360: 6b6e e2bd 156f b33d 1793 26be 432c 56be
00000370: 8e7b 23bd dbf4 10be ec27 1e3e 5eda 26be
00000380: 1a6d 8ebc ab88 d23d 656c 5cbe a88d 423e
00000390: 4358 debd 2ca6 83bd 6e9c 17be 27d2 b7bd
000003a0: 61ac c6bd a150 61be 72f6 a83d 1171 0b3b
000003b0: 450a 7b3e cacc 2c3e 66e1 5f3e 6649 9a3d
000003c0: 6077 ef3d 227a 5f3e 70ac 423e cf8f 4abe
000003d0: d328 85bd d717 7bbe 199d 91bb 9d39 d5bd
000003e0: b0bc 503e 509f 2e3d f8b8 703b be3d 37be
000003f0: afff 4abe 112b 123d 0a4a 02be 1d4f ecbd
-0.124486156 0.16946328 0.15969928 0.03746749 -0.11351607 0.05332153 -0.0013910863 0.21999107
0.036767542 0.020100908 0.020634457 0.13359995 -0.0034955188 0.20762292 0.13126338 -0.17610013
0.010414753 -0.20378257 -0.18128158 0.057033103 0.062537596 -0.018427428 0.2389038 -0.13009988
-0.093015276 -0.026864424 0.010350869 -0.018276999 0.22000548 -0.10239204 -0.12437368 0.026845526
0.18680842 0.06231621 0.13629997 0.046310358 0.20536011 0.1412161 0.17626488 -0.02972671
-0.2017868 -0.11687404 0.0811355 0.17854165 -0.090255074 0.20989427 0.041639015 0.009594733
-0.0010216403 -0.05537103 0.22256029 -0.0044833124 0.13745628 -0.22539231 -0.14321457 0.007288283
0.17803845 0.09868113 0.029150272 -0.25475642 -0.008497764 -0.17315121 -0.22340974 0.023776669
-0.14927898 0.22811253 -0.13439114 0.08475661 0.15261425 -0.18060581 0.14040312 -0.03189154
0.13469835 0.24457243 -0.11456397 -0.11342145 0.19451995 0.022097625 -0.027912244 0.18158145
-0.1514988 -0.046201482 0.1380956 0.065178156 -0.18698968 0.03881739 -0.21201421 -0.15429863
0.13507698 -0.0899218 -0.13864024 0.005803771 0.042389117 -0.16543528 -0.17184697 -0.23743486
0.04057339 -0.17737268 0.001442452 -0.0687573 -0.17607033 -0.095610075 -0.20453513 -0.14286348
-0.024272138 -0.22952752 -0.23557375 0.15795311 -0.0011548541 -0.13286388 -0.03289379 0.15819527
-0.20660725 -0.13056673 -0.17619307 -0.016233929 -0.010470634 -0.19169547 0.16518004 -0.19323646
0.21087442 -0.18656024 -0.05808389 0.022653902 -0.13116048 0.20126006 -0.19067131 -0.032519933
-0.18305095 0.06716253 0.20847625 0.2307472 0.029682022 -0.12628295 0.24426094 0.018366545
0.16404206 -0.13475588 -0.11716962 -0.20333052 0.22497235 0.04158862 -0.17325154 0.022159263
-0.11110118 0.009008329 0.079323806 -0.1264276 0.042221863 -0.15837093 0.04277197 -0.24299704
0.036910497 0.24470067 0.22074363 0.08611793 0.17601614 0.24118875 0.065505944 0.080766976
0.047197808 0.2298734 0.2259392 -0.10218171 -0.003004315 -0.12438182 0.08776168 -0.24379466
0.08419574 -0.060737748 0.09515809 0.07775161 -0.10703877 0.13509831 0.10755929 -0.21045837
0.27159253 0.22958592 0.17799996 0.007161732 0.11982429 -0.105709895 -0.045199215 0.14927173
0.14083949 0.13077821 -0.21185842 0.23161267 -0.082692154 0.2303689 0.22352573 0.10450261
0.2588336 0.16014676 0.15635419 -0.06995962 0.2420367 0.077184 0.15755121 -0.04078379
0.19435707 0.23783602 -0.17672804 0.21856199 -0.14326161 -0.14788799 -0.18934293 0.089005426
-0.18528546 -0.09387275 -0.126639 0.060020167 -0.24151582 -0.11124829 -0.0035742184 0.018801492
-0.11056217 0.087614216 -0.16267048 -0.20915322 -0.039912753 -0.14155905 0.15444916 -0.16294238
-0.017386008 0.102799736 -0.21525724 0.1899935 -0.10856678 -0.06428179 -0.14805767 -0.0897563
-0.097008474 -0.22003414 0.08250131 0.002127711 0.24515636 0.16874996 0.21863326 0.07533531
0.11692691 0.21823934 0.19011092 -0.19781421 -0.06501927 -0.24520813 -0.0044437763 -0.104113795
0.20384479 0.0426324 0.0036731344 -0.17894647 -0.19824098 0.035685603 -0.12723556 -0.11538527

block3.1.weight f4 [32, 32, 1, 1]
00000000: e75c 5fbd a75d 9b3c 485d 34bd 79da 2fbe
00000010: 02cd 8abc e683 ba3d f9f1 34bb 3295 87bd
00000020: 854d 7c3c 7cbb f53c 0e31 6dbd b9a0 1cbe
00000030: a7f0 b4bd 3649 dbbc fb09 763d 26ab 1f3e
00000040: b5d6 88bc fb9a 943d 1c4b d33d eb16 a8bd
00000050: bb00 1cbd 8b74 ed3d 0c42 043e c44c 083d
00000060: aa00 16be af18 e83d afc2 17be 0481 b43d
00000070: 24eb 3b3c 69b2 3c3d 0cc0 37be 2bc7 2fbd
00000080: 1898 b33d b9a7 063e acfd 17bd 0b0a 183e
00000090: c9a2 16bd 0897 fcbd dfed c7bd 1d8c 3e3a
000000a0: bc19 cfbc 4ab3 a43d 7ecc d1bd fd69 cbbc
000000b0: 1a5b 31be 8732 0f3e c974 c1bc 3c60 10be
000000c0: ac2c 1f3c 2db0 fe3b caa7 343d ecb1 5e3b
000000d0: 4dc0 bd3d 6a88 8dbd d43f 77bd 96de 60bd
000000e0: 6058 6e3d 520f f33d ad12 f939 1f08 f63d
000000f0: f073 073e 5f68 c8bd 1505 f43b 3aaa c3bd
00000100: 4a11 aa3d 3e5f 84bd 48a3 6b3d 3e7a 203c
00000110: 705e debd c6ae 05be 46c8 46be 32d0 d6bd
00000120: 9004 1f3d 62a7 fc3b 3421 063e a8a2 f5bd
00000130: f864 15bc 9248 23be 5d04 ee3b 0404 543d
00000140: 9a13 16be 5845 143e 60b4 1cbd 6b55 323e
00000150: 4783 5bbd 1070 b13d 2386 1e3e 9802 99bd
00000160: cdbc 2dbc 64a5 913d 1c2b 13be 908a bf3d
00000170: 456e dabd 6b95 203e 6195 acbd d891 a3bd
00000180: ac70 0f3e cd4c 8abd 6aa5 223e a901 f63d
00000190: 26df 1e3e e4ef 37be ae70 81bc 4426 9abd
000001a0: 6d12 283d 9cca 06be e818 873d f4fd 813c
000001b0: d123 a3bd a6a7 24be cf01 c63d 42cc 73bd
000001c0: 67cc 173e 5869 d83c a586 3a3d 9b56 8ebb
000001d0: 25a2 3fbd 4f6e 6dbd 0f47 16be 2498 d03d
000001e0: 547b a2bd b323 ac3d 233a 67bd 551e dd3d
000001f0: 0938 0b3e 0914 dbbd 6265 263e 8100 053b
00000200: 4b76 10be 41ce 9d3d f09a c23d a2d5 153e
00000210: 8f3e 2dbe 53fb 2e3e b1df 163e aa61 3a3e
00000220: f67a d73d cae8 b8bd 26bc 033e a396 0b3e
00000230: d07c 85bd f17a cdbc 0286 043e 6974 133e
00000240: e457 c03d 13c3 0b3e 3fdf d4bd 8503 4bbd
00000250: bbe2 3dbd 03e3 bf3d 89d6 393d 34f7 05be
00000260: 78f6 59bd 0f2f 01be 36da 36be a25c 233e
00000270: 67ba a8bd 49fa 943d 1013 7abd 33ef 0ebd
00000280: 6f83 d13b 1786 003e b23c aabc b7ab 0e3e
00000290: aaf9 bf3d c3eb d03d a950 36be 45ff acbd
000002a0: 2380 16be 613d 18bd 93a3 1bbd 03ff 703d
000002b0: 0129 0f3e e210 973d 5277 d9bd b92f cebd
000002c0: f647 0f3e 17a0 923c 0d39 2e3d 53fc 90bd
000002d0: 11ab 14bd a17e 1b3d 5b48 f1bd a580 e53d
000002e0: 0e22 e03d 2585 e0bd c0a8 8abd 48ea 22bd
000002f0: e8da d83c 6a2f 6bbd d1db 343e b1e3 2abe
00000300: ff2f e6bd caae d1bd 75a0 213d b941 b83c
00000310: e4c4 67bd e8f5 2e3e 4ec4 05be a5f2 943d
00000320: 2e85 b6bd 873e 2cbd a539 3dbe e37e 22be
00000330: eb3f 25be 98e5 ae3d dde1 a8bd 3fca d53d
00000340: f2b4 dbbd 4c9c 34bd ec81 c83c 0fbc 003e
00000350: b37f ebbc e286 e13d 594b 483d 556d f13d
00000360: 247c a03d ff4f b83d 44fc 78bd c966 3abd
00000370: 6b40 a33d f18d d43d d974 14bd 2501 bb3d
00000380: f95d c3bd 7999 b73d 0183 7bbc 4a55 e6bd
00000390: 27f6 aabd 8e2e 1cbe 3968 d13c 911e e1bd
000003a0: 15c8 5ebd a512 6abc 8d77 e2bd 6353 143d
000003b0: d733 b3bc 15ea 533d 59d0 053e 2a77 d9bd
000003c0: e7f5 ec3d 48dd 78bb 5074 a7bd 8430 69bd
000003d0: 0b17 d43c de07 123d 88c8 a9bb 0dc0 bcbd
000003e0: e8ab fa3d bddd 293c 8053 28be 0f8e 02bd
000003f0: f3d0 35bd 4dc6 8ebd 96b6 9ebd 63c1 19be
-0.054531958 0.018965555 -0.044034272 -0.17173184 -0.016943458 0.09107189 -0.0027610047 -0.066202536
0.0153993415 0.029996626 -0.05790811 -0.15295686 -0.08834963 -0.026768308 0.060068112 0.15592632
-0.016703943 0.07256123 0.1031706 -0.08207496 -0.038086634 0.115944944 0.1291582 0.033276334
-0.14648691 0.11332833 -0.1482036 0.0881367 0.011469636 0.046068583 -0.17944354 -0.04291455
0.08769244 0.13149919 -0.037107155 0.14847581 -0.036776338 -0.123334944 -0.09762167 0.00072688033
-0.025280826 0.08042009 -0.10244082 -0.024830813 -0.17319909 0.13984118 -0.023615258 -0.1409921
0.00971524 0.0077724666 0.04410533 0.0033980561 0.09265194 -0.069107845 -0.060363606 -0.054899774
0.05818975 0.118681565 0.00047506895 0.12013268 0.1322782 -0.09785532 0.007446895 -0.095539525
0.08304079 -0.064634785 0.057528764 0.00979477 -0.10857856 -0.13054952 -0.19412336 -0.10488929
0.03882271 0.0077103833 0.13098603 -0.11993915 -0.009118311 -0.15945652 0.0072637037 0.051761642
-0.14655915 0.14479578 -0.038257957 0.17415397 -0.053591993 0.08663952 0.15480857 -0.07471198
-0.010604096 0.07111624 -0.14371914 0.093526006 -0.106655635 0.15681998 -0.08426929 -0.07986802
0.14007825 -0.0675293 0.15883413 0.120120354 0.15514812 -0.17962605 -0.0158008 -0.0752683
0.041033197 -0.13163227 0.06596547 0.015868165 -0.07965816 -0.16079578 0.09668314 -0.059520967
0.14824067 0.02641742 0.045538563 -0.0043438203 -0.046785492 -0.057966527 -0.14675544 0.101852685
-0.07933679 0.084052466 -0.056451928 0.10796801 0.13595594 -0.10697181 0.16249612 0.002029449
-0.14107625 0.077053554 0.09502208 0.14632276 -0.16918395 0.1708806 0.14733769 0.18201318
0.105215 -0.09028776 0.12864742 0.13631682 -0.06517947 -0.025083037 0.12941745 0.14399876
0.09391764 0.13648634 -0.10394143 -0.049563903 -0.046358805 0.09369471 0.045370612 -0.13082582
-0.053213567 -0.12615608 -0.17856678 0.15953305 -0.082386784 0.072743006 -0.061053336 -0.034896087
0.006393842 0.12551151 -0.020780895 0.13932692 0.093737915 0.10201218 -0.17804207 -0.08447126
-0.14697318 -0.03716791 -0.037997793 0.058836948 0.13980485 0.07376267 -0.10618462 -0.10067696
0.13992295 0.017898602 0.042534877 -0.07079377 -0.036295954 0.03796256 -0.11781379 0.112061776
0.109439954 -0.10962895 -0.06770468 -0.03977421 0.02647157 -0.057418264 0.17661978 -0.1668842
-0.11239623 -0.102384165 0.039459664 0.022492277 -0.056584254 0.17085993 -0.13063166 0.07272843
-0.08912121 -0.04205182 -0.18479021 -0.15868716 -0.16137664 0.08539885 -0.08246205 0.10438966
-0.10727872 -0.04409437 0.024476014 0.12571739 -0.028747415 0.11012055 0.048899982 0.117884316
0.07836178 0.08999633 -0.060787454 -0.04550818 0.07971271 0.10378636 -0.036244247 0.09131078
-0.09539408 0.089648195 -0.015351058 -0.11246736 -0.08347731 -0.15252134 0.025562393 -0.10992158
-0.05439003 -0.014286672 -0.11057959 0.036212336 -0.021875305 0.05173691 0.1306776 -0.10618432
0.1157034 -0.003797369 -0.08176482 -0.056931034 0.025889894 0.035652034 -0.005181376 -0.09216318
0.1223982 0.010367808 -0.16438103 -0.03187376 -0.044388723 -0.069714166 -0.07749669 -0.15015177

block3.2.weight f4 [32]
00000000: f02a 833f bfe2 7c3f 6a66 803f 7053 7f3f
00000010: 15f7 813f ee12 813f 5dd6 7f3f bab0 7d3f
00000020: f8ed 7f3f 0502 833f 827e 803f e565 823f
00000030: 989f 803f b8b8 823f 807f 823f a07f 7e3f
00000040: 2bc1 823f edbf 7a3f d807 823f 38f0 7e3f
00000050: a8b8 803f 6f87 7f3f 983b 7e3f 6bda 7f3f
00000060: 1f48 803f df6e 833f d47d 823f cc34 803f
00000070: 9340 803f 5ace 823f 6125 813f f82b 833f
1.0247478 0.9878349 1.0031254 0.9973669 1.0153528 1.0083902 0.9993647 0.9909779
0.99972486 1.0234991 1.0038607 1.0187346 1.0048704 1.0212622 1.019516 0.9941349
1.02152 0.97949106 1.0158644 0.99585295 1.0056353 0.9981603 0.9930968 0.99942654
1.002201 1.026821 1.019465 1.0016112 1.0019706 1.0219223 1.0089532 1.0247793

block3.2.bias f4 [32]
00000000: 554a fd3c 6f7a dbbc 60ef edbc fabe d1bc
00000010: bb15 f63c 224e ccbc 612e e13c e4b6 eabc
00000020: 6423 c73c 4a46 f63c 9191 e33c dd15 e43c
00000030: 4f57 fbbc 40b0 f53c 1d10 ec3c a3f3 e5bc
00000040: 67b0 f93c 9acc c0bc d886 093d c7ff c1bc
00000050: 38bc dbbc 66a3 dcbc cb21 c8bc 1a0d d63c
00000060: f9b9 e4bc d940 153d 1234 e03c d1aa d4bc
00000070: 6e75 de3c 38f3 d23c 201f e0bc 1b54 003d
0.030919233 -0.02679178 -0.029044807 -0.02560376 0.030039659 -0.0249396 0.027487935 -0.028651662
0.024308868 0.030062813 0.027779372 0.027842456 -0.03068128 0.02999127 0.028816277 -0.028070277
0.030479623 -0.023535062 0.033575863 -0.023681534 -0.026823148 -0.026933383 -0.024430176 0.026129294
-0.02792071 0.036438797 0.027368579 -0.025960358 0.027155604 0.025750741 -0.027358592 0.03133021

block3.2.running_mean f4 [32]
00000000: d3a2 3cbd c467 68bb 570e 063d 33d1 6c3c
00000010: f3fc ebbc a8f9 3e3d ae4d aabc be0f d23c
00000020: cf7a de3c b451 4abd 2b5a 4bbc 02c8 85bb
00000030: c5e2 803c eb16 afbc 7c05 26bd 6c34 123c
00000040: 52ea ecbc cb06 12bd 5248 c4bb 5710 fd3a
00000050: 0d89 a13c a8c7 d13c db94 613c 91fe 0a3c
00000060: bcef 283d 029d c6bc e6de 30bd 0852 073d
00000070: 44e4 913c 8d83 68bd 1064 183d 1286 2abd
-0.04605372 -0.003546224 0.03272852 0.014454174 -0.028807139 0.04662481 -0.020788994 0.025642272
0.02715817 -0.049394324 -0.012411634 -0.0040826807 0.015733132 -0.021373233 -0.040532574 0.008923631
-0.028920326 -0.03565101 -0.0059900666 0.0019307238 0.019718671 0.025607899 0.0137684 0.008483545
0.041244254 -0.024244789 -0.043181323 0.033037215 0.01780904 -0.05676608 0.037204802 -0.041631766

block3.2.running_var f4 [32]
00000000: a5b4 963c 1383 413c f3a4 b03c 53f1 273c
00000010: ec2c f73c 6a1e b23c bb99 903c 7d8e 663c
00000020: b31e 6a3c 8d5b 8c3c db74 8d3c 52be c93c
00000030: da6a 9b3c 6781 9d3c afff b43c b377 f23c
00000040: 72d8 823c 45bb 8d3c 4937 9c3c 2169 c23c
00000050: f513 a53c 984b c83c fae8 d03c 30b6 483c
00000060: 7afe d13c 6b9e a13c eeee 9d3c 62b5 b53c
00000070: ef4c 973c 9972 913c 2cc7 a63c 41a3 863c
0.018396685 0.011811036 0.021563029 0.010250407 0.030172788 0.021743018 0.01765143 0.014072058
0.014289546 0.017133499 0.017267635 0.024626885 0.01897185 0.019226743 0.022094576 0.029598093
0.01597235 0.017301211 0.01906933 0.02373177 0.020151118 0.024450108 0.025501717 0.012250468
0.02563404 0.01972886 0.01927897 0.022181217 0.018469302 0.01775484 0.020358644 0.016435267

fc.weight f4 [1, 32]
00000000: 681f 0dbe f1d6 ed3d bd71 103e f6d9 023e
00000010: 45c2 90bd 244f e83d 3d15 02be a3d0 893d
00000020: d608 4ebc 6fe9 1ebe e87a fdbd ea86 29be
00000030: d070 2e3d d115 a2bd 60b9 c3bd 6126 163e
00000040: 8ab6 92bd 825b e83c 084e 36bd f7c3 bd3d
00000050: 7b40 7e3d ef36 d23d a97c 183d 1c75 eebc
00000060: 0dfe 153e 43b6 17bd 3114 ecbd a72e 713d
00000070: b42d 91bc 5dd2 0fbe 5037 183d cbc6 82bd
-0.13781512 0.116132624 0.14105888 0.12778458 -0.07068304 0.1134322 -0.12703414 0.067292474
-0.012575349 -0.15518735 -0.12376958 -0.16555372 0.042588055 -0.079143174 -0.09556842 0.14663078
-0.07163723 0.028363947 -0.04450801 0.09265893 0.062073212 0.10264384 0.03722826 -0.029108576
0.14647694 -0.037039053 -0.11527289 0.05888238 -0.017721988 -0.14045091 0.037162125 -0.06385573
